{"format": "graph-model", "generatedBy": "2.13.0-rc0", "convertedBy": "TensorFlow.js Converter v4.17.0", "signature": {"outputs": {"Identity:0": {"name": "Identity:0"}}}, "modelTopology": {"node": [{"name": "ConstantFolding/PartitionedCall/model_3/tf.math.divide/truediv_recip", "op": "Const", "attr": {"dtype": {"type": "DT_FLOAT"}, "value": {"tensor": {"dtype": "DT_FLOAT", "tensorShape": {"dim": [{"size": "1"}, {"size": "1"}, {"size": "1"}]}}}}}, {"name": "5235", "op": "Const", "attr": {"dtype": {"type": "DT_FLOAT"}, "value": {"tensor": {"dtype": "DT_FLOAT", "tensorShape": {"dim": [{"size": "1"}, {"size": "2"}, {"size": "8400"}]}}}}}, {"name": "5227", "op": "Const", "attr": {"dtype": {"type": "DT_INT64"}, "value": {"tensor": {"dtype": "DT_INT64", "tensorShape": {"dim": [{"size": "3"}]}}}}}, {"name": "5229", "op": "Const", "attr": {"value": {"tensor": {"dtype": "DT_INT64", "tensorShape": {"dim": [{"size": "3"}]}}}, "dtype": {"type": "DT_INT64"}}}, {"name": "PartitionedCall/model_3/tf.strided_slice_19/ones_like", "op": "Const", "attr": {"dtype": {"type": "DT_INT64"}, "value": {"tensor": {"dtype": "DT_INT64", "tensorShape": {"dim": [{"size": "3"}]}}}}}, {"name": "5237", "op": "Const", "attr": {"value": {"tensor": {"dtype": "DT_FLOAT", "tensorShape": {"dim": [{"size": "1"}, {"size": "2"}, {"size": "8400"}]}}}, "dtype": {"type": "DT_FLOAT"}}}, {"name": "5221", "op": "Const", "attr": {"dtype": {"type": "DT_INT64"}, "value": {"tensor": {"dtype": "DT_INT64", "tensorShape": {"dim": [{"size": "3"}]}}}}}, {"name": "5223", "op": "Const", "attr": {"dtype": {"type": "DT_INT64"}, "value": {"tensor": {"dtype": "DT_INT64", "tensorShape": {"dim": [{"size": "3"}]}}}}}, {"name": "PartitionedCall/model_3/tf.strided_slice_16/StridedSlice/strides", "op": "Const", "attr": {"value": {"tensor": {"dtype": "DT_INT64", "tensorShape": {"dim": [{"size": "3"}]}}}, "dtype": {"type": "DT_INT64"}}}, {"name": "PartitionedCall/model_3/tf.reshape_3/Reshape/shape", "op": "Const", "attr": {"value": {"tensor": {"dtype": "DT_INT32", "tensorShape": {"dim": [{"size": "4"}]}}}, "dtype": {"type": "DT_INT32"}}}, {"name": "PartitionedCall/model_3/tf.compat.v1.transpose_1160/transpose/perm", "op": "Const", "attr": {"dtype": {"type": "DT_INT32"}, "value": {"tensor": {"dtype": "DT_INT32", "tensorShape": {"dim": [{"size": "4"}]}}}}}, {"name": "PartitionedCall/model_3/tf.compat.v1.transpose_1161/transpose/perm", "op": "Const", "attr": {"value": {"tensor": {"dtype": "DT_INT32", "tensorShape": {"dim": [{"size": "4"}]}}}, "dtype": {"type": "DT_INT32"}}}, {"name": "5225", "op": "Const", "attr": {"value": {"tensor": {"dtype": "DT_FLOAT", "tensorShape": {"dim": [{"size": "1"}, {"size": "1"}, {"size": "16"}, {"size": "1"}]}}}, "dtype": {"type": "DT_FLOAT"}}}, {"name": "PartitionedCall/model_3/tf.compat.v1.transpose_1164/transpose/perm", "op": "Const", "attr": {"value": {"tensor": {"dtype": "DT_INT32", "tensorShape": {"dim": [{"size": "4"}]}}}, "dtype": {"type": "DT_INT32"}}}, {"name": "PartitionedCall/model_3/tf.reshape_4/Reshape/shape", "op": "Const", "attr": {"value": {"tensor": {"dtype": "DT_INT32", "tensorShape": {"dim": [{"size": "3"}]}}}, "dtype": {"type": "DT_INT32"}}}, {"name": "5231", "op": "Const", "attr": {"value": {"tensor": {"dtype": "DT_INT64", "tensorShape": {"dim": [{"size": "3"}]}}}, "dtype": {"type": "DT_INT64"}}}, {"name": "5233", "op": "Const", "attr": {"value": {"tensor": {"dtype": "DT_INT64", "tensorShape": {"dim": [{"size": "3"}]}}}, "dtype": {"type": "DT_INT64"}}}, {"name": "PartitionedCall/model_3/tf.strided_slice_18/ones_like", "op": "Const", "attr": {"dtype": {"type": "DT_INT64"}, "value": {"tensor": {"dtype": "DT_INT64", "tensorShape": {"dim": [{"size": "3"}]}}}}}, {"name": "PartitionedCall/model_3/tf.concat_594/concat/axis", "op": "Const", "attr": {"dtype": {"type": "DT_INT32"}, "value": {"tensor": {"dtype": "DT_INT32", "tensorShape": {}}}}}, {"name": "PartitionedCall/model_3/tf.math.multiply_195/Mul/y", "op": "Const", "attr": {"dtype": {"type": "DT_FLOAT"}, "value": {"tensor": {"dtype": "DT_FLOAT", "tensorShape": {"dim": [{"size": "1"}, {"size": "1"}, {"size": "8400"}]}}}}}, {"name": "5153", "op": "Const", "attr": {"dtype": {"type": "DT_FLOAT"}, "value": {"tensor": {"dtype": "DT_FLOAT", "tensorShape": {"dim": [{"size": "3"}, {"size": "3"}, {"size": "64"}, {"size": "64"}]}}}}}, {"name": "5163", "op": "Const", "attr": {"value": {"tensor": {"dtype": "DT_FLOAT", "tensorShape": {"dim": [{"size": "64"}]}}}, "dtype": {"type": "DT_FLOAT"}}}, {"name": "5177", "op": "Const", "attr": {"value": {"tensor": {"dtype": "DT_FLOAT", "tensorShape": {"dim": [{"size": "3"}, {"size": "3"}, {"size": "64"}, {"size": "64"}]}}}, "dtype": {"type": "DT_FLOAT"}}}, {"name": "5187", "op": "Const", "attr": {"dtype": {"type": "DT_FLOAT"}, "value": {"tensor": {"dtype": "DT_FLOAT", "tensorShape": {"dim": [{"size": "64"}]}}}}}, {"name": "5199", "op": "Const", "attr": {"dtype": {"type": "DT_FLOAT"}, "value": {"tensor": {"dtype": "DT_FLOAT", "tensorShape": {"dim": [{"size": "1"}, {"size": "1"}, {"size": "64"}, {"size": "64"}]}}}}}, {"name": "5211", "op": "Const", "attr": {"value": {"tensor": {"dtype": "DT_FLOAT", "tensorShape": {"dim": [{"size": "64"}]}}}, "dtype": {"type": "DT_FLOAT"}}}, {"name": "5149", "op": "Const", "attr": {"dtype": {"type": "DT_FLOAT"}, "value": {"tensor": {"dtype": "DT_FLOAT", "tensorShape": {"dim": [{"size": "3"}, {"size": "3"}, {"size": "64"}, {"size": "80"}]}}}}}, {"name": "5151", "op": "Const", "attr": {"value": {"tensor": {"dtype": "DT_FLOAT", "tensorShape": {"dim": [{"size": "80"}]}}}, "dtype": {"type": "DT_FLOAT"}}}, {"name": "5173", "op": "Const", "attr": {"value": {"tensor": {"dtype": "DT_FLOAT", "tensorShape": {"dim": [{"size": "3"}, {"size": "3"}, {"size": "80"}, {"size": "80"}]}}}, "dtype": {"type": "DT_FLOAT"}}}, {"name": "5175", "op": "Const", "attr": {"value": {"tensor": {"dtype": "DT_FLOAT", "tensorShape": {"dim": [{"size": "80"}]}}}, "dtype": {"type": "DT_FLOAT"}}}, {"name": "5197", "op": "Const", "attr": {"dtype": {"type": "DT_FLOAT"}, "value": {"tensor": {"dtype": "DT_FLOAT", "tensorShape": {"dim": [{"size": "1"}, {"size": "1"}, {"size": "80"}, {"size": "80"}]}}}}}, {"name": "5209", "op": "Const", "attr": {"dtype": {"type": "DT_FLOAT"}, "value": {"tensor": {"dtype": "DT_FLOAT", "tensorShape": {"dim": [{"size": "80"}]}}}}}, {"name": "PartitionedCall/model_3/tf.concat_587/concat/axis", "op": "Const", "attr": {"dtype": {"type": "DT_INT32"}, "value": {"tensor": {"dtype": "DT_INT32", "tensorShape": {}}}}}, {"name": "PartitionedCall/model_3/tf.compat.v1.transpose_1156/transpose/perm", "op": "Const", "attr": {"value": {"tensor": {"dtype": "DT_INT32", "tensorShape": {"dim": [{"size": "4"}]}}}, "dtype": {"type": "DT_INT32"}}}, {"name": "PartitionedCall/model_3/tf.reshape/Reshape/shape", "op": "Const", "attr": {"dtype": {"type": "DT_INT32"}, "value": {"tensor": {"dtype": "DT_INT32", "tensorShape": {"dim": [{"size": "3"}]}}}}}, {"name": "5161", "op": "Const", "attr": {"dtype": {"type": "DT_FLOAT"}, "value": {"tensor": {"dtype": "DT_FLOAT", "tensorShape": {"dim": [{"size": "3"}, {"size": "3"}, {"size": "128"}, {"size": "64"}]}}}}}, {"name": "5171", "op": "Const", "attr": {"dtype": {"type": "DT_FLOAT"}, "value": {"tensor": {"dtype": "DT_FLOAT", "tensorShape": {"dim": [{"size": "64"}]}}}}}, {"name": "5185", "op": "Const", "attr": {"dtype": {"type": "DT_FLOAT"}, "value": {"tensor": {"dtype": "DT_FLOAT", "tensorShape": {"dim": [{"size": "3"}, {"size": "3"}, {"size": "64"}, {"size": "64"}]}}}}}, {"name": "5195", "op": "Const", "attr": {"value": {"tensor": {"dtype": "DT_FLOAT", "tensorShape": {"dim": [{"size": "64"}]}}}, "dtype": {"type": "DT_FLOAT"}}}, {"name": "5207", "op": "Const", "attr": {"dtype": {"type": "DT_FLOAT"}, "value": {"tensor": {"dtype": "DT_FLOAT", "tensorShape": {"dim": [{"size": "1"}, {"size": "1"}, {"size": "64"}, {"size": "64"}]}}}}}, {"name": "5217", "op": "Const", "attr": {"dtype": {"type": "DT_FLOAT"}, "value": {"tensor": {"dtype": "DT_FLOAT", "tensorShape": {"dim": [{"size": "64"}]}}}}}, {"name": "5159", "op": "Const", "attr": {"value": {"tensor": {"dtype": "DT_FLOAT", "tensorShape": {"dim": [{"size": "3"}, {"size": "3"}, {"size": "128"}, {"size": "80"}]}}}, "dtype": {"type": "DT_FLOAT"}}}, {"name": "5169", "op": "Const", "attr": {"dtype": {"type": "DT_FLOAT"}, "value": {"tensor": {"dtype": "DT_FLOAT", "tensorShape": {"dim": [{"size": "80"}]}}}}}, {"name": "5183", "op": "Const", "attr": {"value": {"tensor": {"dtype": "DT_FLOAT", "tensorShape": {"dim": [{"size": "3"}, {"size": "3"}, {"size": "80"}, {"size": "80"}]}}}, "dtype": {"type": "DT_FLOAT"}}}, {"name": "5193", "op": "Const", "attr": {"value": {"tensor": {"dtype": "DT_FLOAT", "tensorShape": {"dim": [{"size": "80"}]}}}, "dtype": {"type": "DT_FLOAT"}}}, {"name": "5205", "op": "Const", "attr": {"dtype": {"type": "DT_FLOAT"}, "value": {"tensor": {"dtype": "DT_FLOAT", "tensorShape": {"dim": [{"size": "1"}, {"size": "1"}, {"size": "80"}, {"size": "80"}]}}}}}, {"name": "5219", "op": "Const", "attr": {"dtype": {"type": "DT_FLOAT"}, "value": {"tensor": {"dtype": "DT_FLOAT", "tensorShape": {"dim": [{"size": "80"}]}}}}}, {"name": "PartitionedCall/model_3/tf.concat_590/concat/axis", "op": "Const", "attr": {"value": {"tensor": {"dtype": "DT_INT32", "tensorShape": {}}}, "dtype": {"type": "DT_INT32"}}}, {"name": "PartitionedCall/model_3/tf.compat.v1.transpose_1157/transpose/perm", "op": "Const", "attr": {"dtype": {"type": "DT_INT32"}, "value": {"tensor": {"dtype": "DT_INT32", "tensorShape": {"dim": [{"size": "4"}]}}}}}, {"name": "PartitionedCall/model_3/tf.reshape_1/Reshape/shape", "op": "Const", "attr": {"value": {"tensor": {"dtype": "DT_INT32", "tensorShape": {"dim": [{"size": "3"}]}}}, "dtype": {"type": "DT_INT32"}}}, {"name": "5157", "op": "Const", "attr": {"value": {"tensor": {"dtype": "DT_FLOAT", "tensorShape": {"dim": [{"size": "3"}, {"size": "3"}, {"size": "256"}, {"size": "64"}]}}}, "dtype": {"type": "DT_FLOAT"}}}, {"name": "5167", "op": "Const", "attr": {"value": {"tensor": {"dtype": "DT_FLOAT", "tensorShape": {"dim": [{"size": "64"}]}}}, "dtype": {"type": "DT_FLOAT"}}}, {"name": "5181", "op": "Const", "attr": {"dtype": {"type": "DT_FLOAT"}, "value": {"tensor": {"dtype": "DT_FLOAT", "tensorShape": {"dim": [{"size": "3"}, {"size": "3"}, {"size": "64"}, {"size": "64"}]}}}}}, {"name": "5191", "op": "Const", "attr": {"value": {"tensor": {"dtype": "DT_FLOAT", "tensorShape": {"dim": [{"size": "64"}]}}}, "dtype": {"type": "DT_FLOAT"}}}, {"name": "5203", "op": "Const", "attr": {"value": {"tensor": {"dtype": "DT_FLOAT", "tensorShape": {"dim": [{"size": "1"}, {"size": "1"}, {"size": "64"}, {"size": "64"}]}}}, "dtype": {"type": "DT_FLOAT"}}}, {"name": "5213", "op": "Const", "attr": {"value": {"tensor": {"dtype": "DT_FLOAT", "tensorShape": {"dim": [{"size": "64"}]}}}, "dtype": {"type": "DT_FLOAT"}}}, {"name": "5141", "op": "Const", "attr": {"value": {"tensor": {"dtype": "DT_INT64", "tensorShape": {"dim": [{"size": "4"}]}}}, "dtype": {"type": "DT_INT64"}}}, {"name": "5143", "op": "Const", "attr": {"value": {"tensor": {"dtype": "DT_INT64", "tensorShape": {"dim": [{"size": "4"}]}}}, "dtype": {"type": "DT_INT64"}}}, {"name": "PartitionedCall/model_3/tf.strided_slice_14/ones_like", "op": "Const", "attr": {"dtype": {"type": "DT_INT64"}, "value": {"tensor": {"dtype": "DT_INT64", "tensorShape": {"dim": [{"size": "4"}]}}}}}, {"name": "5111", "op": "Const", "attr": {"value": {"tensor": {"dtype": "DT_INT64", "tensorShape": {"dim": [{"size": "4"}]}}}, "dtype": {"type": "DT_INT64"}}}, {"name": "5113", "op": "Const", "attr": {"value": {"tensor": {"dtype": "DT_INT64", "tensorShape": {"dim": [{"size": "4"}]}}}, "dtype": {"type": "DT_INT64"}}}, {"name": "PartitionedCall/model_3/tf.strided_slice_12/ones_like", "op": "Const", "attr": {"value": {"tensor": {"dtype": "DT_INT64", "tensorShape": {"dim": [{"size": "4"}]}}}, "dtype": {"type": "DT_INT64"}}}, {"name": "5081", "op": "Const", "attr": {"dtype": {"type": "DT_INT64"}, "value": {"tensor": {"dtype": "DT_INT64", "tensorShape": {"dim": [{"size": "4"}]}}}}}, {"name": "5083", "op": "Const", "attr": {"dtype": {"type": "DT_INT64"}, "value": {"tensor": {"dtype": "DT_INT64", "tensorShape": {"dim": [{"size": "4"}]}}}}}, {"name": "PartitionedCall/model_3/tf.strided_slice_10/ones_like", "op": "Const", "attr": {"dtype": {"type": "DT_INT64"}, "value": {"tensor": {"dtype": "DT_INT64", "tensorShape": {"dim": [{"size": "4"}]}}}}}, {"name": "PartitionedCall/model_3/lambda_1//model.13/Resize/size", "op": "Const", "attr": {"value": {"tensor": {"dtype": "DT_INT32", "tensorShape": {"dim": [{"size": "2"}]}}}, "dtype": {"type": "DT_INT32"}}}, {"name": "PartitionedCall/model_3/tf.concat_7/concat/axis", "op": "Const", "attr": {"value": {"tensor": {"dtype": "DT_INT32", "tensorShape": {}}}, "dtype": {"type": "DT_INT32"}}}, {"name": "5065", "op": "Const", "attr": {"dtype": {"type": "DT_FLOAT"}, "value": {"tensor": {"dtype": "DT_FLOAT", "tensorShape": {"dim": [{"size": "1"}, {"size": "1"}, {"size": "192"}, {"size": "64"}]}}}}}, {"name": "5067", "op": "Const", "attr": {"value": {"tensor": {"dtype": "DT_FLOAT", "tensorShape": {"dim": [{"size": "64"}]}}}, "dtype": {"type": "DT_FLOAT"}}}, {"name": "5069", "op": "Const", "attr": {"dtype": {"type": "DT_INT64"}, "value": {"tensor": {"dtype": "DT_INT64", "tensorShape": {"dim": [{"size": "4"}]}}}}}, {"name": "5071", "op": "Const", "attr": {"value": {"tensor": {"dtype": "DT_INT64", "tensorShape": {"dim": [{"size": "4"}]}}}, "dtype": {"type": "DT_INT64"}}}, {"name": "PartitionedCall/model_3/tf.strided_slice_11/ones_like", "op": "Const", "attr": {"value": {"tensor": {"dtype": "DT_INT64", "tensorShape": {"dim": [{"size": "4"}]}}}, "dtype": {"type": "DT_INT64"}}}, {"name": "5073", "op": "Const", "attr": {"dtype": {"type": "DT_FLOAT"}, "value": {"tensor": {"dtype": "DT_FLOAT", "tensorShape": {"dim": [{"size": "3"}, {"size": "3"}, {"size": "32"}, {"size": "32"}]}}}}}, {"name": "5075", "op": "Const", "attr": {"value": {"tensor": {"dtype": "DT_FLOAT", "tensorShape": {"dim": [{"size": "32"}]}}}, "dtype": {"type": "DT_FLOAT"}}}, {"name": "5077", "op": "Const", "attr": {"value": {"tensor": {"dtype": "DT_FLOAT", "tensorShape": {"dim": [{"size": "3"}, {"size": "3"}, {"size": "32"}, {"size": "32"}]}}}, "dtype": {"type": "DT_FLOAT"}}}, {"name": "5079", "op": "Const", "attr": {"value": {"tensor": {"dtype": "DT_FLOAT", "tensorShape": {"dim": [{"size": "32"}]}}}, "dtype": {"type": "DT_FLOAT"}}}, {"name": "PartitionedCall/model_3/tf.concat_8/concat/axis", "op": "Const", "attr": {"value": {"tensor": {"dtype": "DT_INT32", "tensorShape": {}}}, "dtype": {"type": "DT_INT32"}}}, {"name": "5085", "op": "Const", "attr": {"value": {"tensor": {"dtype": "DT_FLOAT", "tensorShape": {"dim": [{"size": "1"}, {"size": "1"}, {"size": "96"}, {"size": "64"}]}}}, "dtype": {"type": "DT_FLOAT"}}}, {"name": "5087", "op": "Const", "attr": {"dtype": {"type": "DT_FLOAT"}, "value": {"tensor": {"dtype": "DT_FLOAT", "tensorShape": {"dim": [{"size": "64"}]}}}}}, {"name": "5089", "op": "Const", "attr": {"dtype": {"type": "DT_INT32"}, "value": {"tensor": {"dtype": "DT_INT32", "tensorShape": {"dim": [{"size": "4"}, {"size": "2"}]}}}}}, {"name": "5091", "op": "Const", "attr": {"dtype": {"type": "DT_FLOAT"}, "value": {"tensor": {"dtype": "DT_FLOAT", "tensorShape": {"dim": [{"size": "3"}, {"size": "3"}, {"size": "64"}, {"size": "64"}]}}}}}, {"name": "5093", "op": "Const", "attr": {"value": {"tensor": {"dtype": "DT_FLOAT", "tensorShape": {"dim": [{"size": "64"}]}}}, "dtype": {"type": "DT_FLOAT"}}}, {"name": "5057", "op": "Const", "attr": {"dtype": {"type": "DT_INT64"}, "value": {"tensor": {"dtype": "DT_INT64", "tensorShape": {"dim": [{"size": "4"}]}}}}}, {"name": "5059", "op": "Const", "attr": {"value": {"tensor": {"dtype": "DT_INT64", "tensorShape": {"dim": [{"size": "4"}]}}}, "dtype": {"type": "DT_INT64"}}}, {"name": "PartitionedCall/model_3/tf.strided_slice_8/ones_like", "op": "Const", "attr": {"dtype": {"type": "DT_INT64"}, "value": {"tensor": {"dtype": "DT_INT64", "tensorShape": {"dim": [{"size": "4"}]}}}}}, {"name": "PartitionedCall/model_3/lambda//model.10/Resize/size", "op": "Const", "attr": {"value": {"tensor": {"dtype": "DT_INT32", "tensorShape": {"dim": [{"size": "2"}]}}}, "dtype": {"type": "DT_INT32"}}}, {"name": "PartitionedCall/model_3/tf.concat_5/concat/axis", "op": "Const", "attr": {"dtype": {"type": "DT_INT32"}, "value": {"tensor": {"dtype": "DT_INT32", "tensorShape": {}}}}}, {"name": "5041", "op": "Const", "attr": {"dtype": {"type": "DT_FLOAT"}, "value": {"tensor": {"dtype": "DT_FLOAT", "tensorShape": {"dim": [{"size": "1"}, {"size": "1"}, {"size": "384"}, {"size": "128"}]}}}}}, {"name": "5043", "op": "Const", "attr": {"dtype": {"type": "DT_FLOAT"}, "value": {"tensor": {"dtype": "DT_FLOAT", "tensorShape": {"dim": [{"size": "128"}]}}}}}, {"name": "5045", "op": "Const", "attr": {"value": {"tensor": {"dtype": "DT_INT64", "tensorShape": {"dim": [{"size": "4"}]}}}, "dtype": {"type": "DT_INT64"}}}, {"name": "5047", "op": "Const", "attr": {"dtype": {"type": "DT_INT64"}, "value": {"tensor": {"dtype": "DT_INT64", "tensorShape": {"dim": [{"size": "4"}]}}}}}, {"name": "PartitionedCall/model_3/tf.strided_slice_9/ones_like", "op": "Const", "attr": {"dtype": {"type": "DT_INT64"}, "value": {"tensor": {"dtype": "DT_INT64", "tensorShape": {"dim": [{"size": "4"}]}}}}}, {"name": "5049", "op": "Const", "attr": {"value": {"tensor": {"dtype": "DT_FLOAT", "tensorShape": {"dim": [{"size": "3"}, {"size": "3"}, {"size": "64"}, {"size": "64"}]}}}, "dtype": {"type": "DT_FLOAT"}}}, {"name": "5051", "op": "Const", "attr": {"value": {"tensor": {"dtype": "DT_FLOAT", "tensorShape": {"dim": [{"size": "64"}]}}}, "dtype": {"type": "DT_FLOAT"}}}, {"name": "5053", "op": "Const", "attr": {"dtype": {"type": "DT_FLOAT"}, "value": {"tensor": {"dtype": "DT_FLOAT", "tensorShape": {"dim": [{"size": "3"}, {"size": "3"}, {"size": "64"}, {"size": "64"}]}}}}}, {"name": "5055", "op": "Const", "attr": {"dtype": {"type": "DT_FLOAT"}, "value": {"tensor": {"dtype": "DT_FLOAT", "tensorShape": {"dim": [{"size": "64"}]}}}}}, {"name": "PartitionedCall/model_3/tf.concat_6/concat/axis", "op": "Const", "attr": {"dtype": {"type": "DT_INT32"}, "value": {"tensor": {"dtype": "DT_INT32", "tensorShape": {}}}}}, {"name": "5061", "op": "Const", "attr": {"value": {"tensor": {"dtype": "DT_FLOAT", "tensorShape": {"dim": [{"size": "1"}, {"size": "1"}, {"size": "192"}, {"size": "128"}]}}}, "dtype": {"type": "DT_FLOAT"}}}, {"name": "5063", "op": "Const", "attr": {"dtype": {"type": "DT_FLOAT"}, "value": {"tensor": {"dtype": "DT_FLOAT", "tensorShape": {"dim": [{"size": "128"}]}}}}}, {"name": "PartitionedCall/model_3/tf.concat_9/concat/axis", "op": "Const", "attr": {"dtype": {"type": "DT_INT32"}, "value": {"tensor": {"dtype": "DT_INT32", "tensorShape": {}}}}}, {"name": "5095", "op": "Const", "attr": {"dtype": {"type": "DT_FLOAT"}, "value": {"tensor": {"dtype": "DT_FLOAT", "tensorShape": {"dim": [{"size": "1"}, {"size": "1"}, {"size": "192"}, {"size": "128"}]}}}}}, {"name": "5097", "op": "Const", "attr": {"dtype": {"type": "DT_FLOAT"}, "value": {"tensor": {"dtype": "DT_FLOAT", "tensorShape": {"dim": [{"size": "128"}]}}}}}, {"name": "5099", "op": "Const", "attr": {"dtype": {"type": "DT_INT64"}, "value": {"tensor": {"dtype": "DT_INT64", "tensorShape": {"dim": [{"size": "4"}]}}}}}, {"name": "5101", "op": "Const", "attr": {"dtype": {"type": "DT_INT64"}, "value": {"tensor": {"dtype": "DT_INT64", "tensorShape": {"dim": [{"size": "4"}]}}}}}, {"name": "PartitionedCall/model_3/tf.strided_slice_13/ones_like", "op": "Const", "attr": {"dtype": {"type": "DT_INT64"}, "value": {"tensor": {"dtype": "DT_INT64", "tensorShape": {"dim": [{"size": "4"}]}}}}}, {"name": "5103", "op": "Const", "attr": {"value": {"tensor": {"dtype": "DT_FLOAT", "tensorShape": {"dim": [{"size": "3"}, {"size": "3"}, {"size": "64"}, {"size": "64"}]}}}, "dtype": {"type": "DT_FLOAT"}}}, {"name": "5105", "op": "Const", "attr": {"value": {"tensor": {"dtype": "DT_FLOAT", "tensorShape": {"dim": [{"size": "64"}]}}}, "dtype": {"type": "DT_FLOAT"}}}, {"name": "5107", "op": "Const", "attr": {"dtype": {"type": "DT_FLOAT"}, "value": {"tensor": {"dtype": "DT_FLOAT", "tensorShape": {"dim": [{"size": "3"}, {"size": "3"}, {"size": "64"}, {"size": "64"}]}}}}}, {"name": "5109", "op": "Const", "attr": {"dtype": {"type": "DT_FLOAT"}, "value": {"tensor": {"dtype": "DT_FLOAT", "tensorShape": {"dim": [{"size": "64"}]}}}}}, {"name": "PartitionedCall/model_3/tf.concat_588/concat/axis", "op": "Const", "attr": {"value": {"tensor": {"dtype": "DT_INT32", "tensorShape": {}}}, "dtype": {"type": "DT_INT32"}}}, {"name": "5115", "op": "Const", "attr": {"value": {"tensor": {"dtype": "DT_FLOAT", "tensorShape": {"dim": [{"size": "1"}, {"size": "1"}, {"size": "192"}, {"size": "128"}]}}}, "dtype": {"type": "DT_FLOAT"}}}, {"name": "5117", "op": "Const", "attr": {"value": {"tensor": {"dtype": "DT_FLOAT", "tensorShape": {"dim": [{"size": "128"}]}}}, "dtype": {"type": "DT_FLOAT"}}}, {"name": "5119", "op": "Const", "attr": {"value": {"tensor": {"dtype": "DT_INT32", "tensorShape": {"dim": [{"size": "4"}, {"size": "2"}]}}}, "dtype": {"type": "DT_INT32"}}}, {"name": "5121", "op": "Const", "attr": {"dtype": {"type": "DT_FLOAT"}, "value": {"tensor": {"dtype": "DT_FLOAT", "tensorShape": {"dim": [{"size": "3"}, {"size": "3"}, {"size": "128"}, {"size": "128"}]}}}}}, {"name": "5123", "op": "Const", "attr": {"dtype": {"type": "DT_FLOAT"}, "value": {"tensor": {"dtype": "DT_FLOAT", "tensorShape": {"dim": [{"size": "128"}]}}}}}, {"name": "5025", "op": "Const", "attr": {"value": {"tensor": {"dtype": "DT_INT64", "tensorShape": {"dim": [{"size": "4"}]}}}, "dtype": {"type": "DT_INT64"}}}, {"name": "5027", "op": "Const", "attr": {"dtype": {"type": "DT_INT64"}, "value": {"tensor": {"dtype": "DT_INT64", "tensorShape": {"dim": [{"size": "4"}]}}}}}, {"name": "PartitionedCall/model_3/tf.strided_slice_6/ones_like", "op": "Const", "attr": {"value": {"tensor": {"dtype": "DT_INT64", "tensorShape": {"dim": [{"size": "4"}]}}}, "dtype": {"type": "DT_INT64"}}}, {"name": "4995", "op": "Const", "attr": {"value": {"tensor": {"dtype": "DT_INT64", "tensorShape": {"dim": [{"size": "4"}]}}}, "dtype": {"type": "DT_INT64"}}}, {"name": "4997", "op": "Const", "attr": {"value": {"tensor": {"dtype": "DT_INT64", "tensorShape": {"dim": [{"size": "4"}]}}}, "dtype": {"type": "DT_INT64"}}}, {"name": "PartitionedCall/model_3/tf.strided_slice_4/ones_like", "op": "Const", "attr": {"value": {"tensor": {"dtype": "DT_INT64", "tensorShape": {"dim": [{"size": "4"}]}}}, "dtype": {"type": "DT_INT64"}}}, {"name": "4957", "op": "Const", "attr": {"dtype": {"type": "DT_INT64"}, "value": {"tensor": {"dtype": "DT_INT64", "tensorShape": {"dim": [{"size": "4"}]}}}}}, {"name": "4959", "op": "Const", "attr": {"dtype": {"type": "DT_INT64"}, "value": {"tensor": {"dtype": "DT_INT64", "tensorShape": {"dim": [{"size": "4"}]}}}}}, {"name": "PartitionedCall/model_3/tf.strided_slice_2/ones_like", "op": "Const", "attr": {"dtype": {"type": "DT_INT64"}, "value": {"tensor": {"dtype": "DT_INT64", "tensorShape": {"dim": [{"size": "4"}]}}}}}, {"name": "4919", "op": "Const", "attr": {"dtype": {"type": "DT_INT64"}, "value": {"tensor": {"dtype": "DT_INT64", "tensorShape": {"dim": [{"size": "4"}]}}}}}, {"name": "4921", "op": "Const", "attr": {"dtype": {"type": "DT_INT64"}, "value": {"tensor": {"dtype": "DT_INT64", "tensorShape": {"dim": [{"size": "4"}]}}}}}, {"name": "PartitionedCall/model_3/tf.strided_slice/ones_like", "op": "Const", "attr": {"dtype": {"type": "DT_INT64"}, "value": {"tensor": {"dtype": "DT_INT64", "tensorShape": {"dim": [{"size": "4"}]}}}}}, {"name": "4891", "op": "Const", "attr": {"dtype": {"type": "DT_INT32"}, "value": {"tensor": {"dtype": "DT_INT32", "tensorShape": {"dim": [{"size": "4"}, {"size": "2"}]}}}}}, {"name": "4893", "op": "Const", "attr": {"dtype": {"type": "DT_FLOAT"}, "value": {"tensor": {"dtype": "DT_FLOAT", "tensorShape": {"dim": [{"size": "3"}, {"size": "3"}, {"size": "3"}, {"size": "16"}]}}}}}, {"name": "4895", "op": "Const", "attr": {"dtype": {"type": "DT_FLOAT"}, "value": {"tensor": {"dtype": "DT_FLOAT", "tensorShape": {"dim": [{"size": "16"}]}}}}}, {"name": "4897", "op": "Const", "attr": {"value": {"tensor": {"dtype": "DT_INT32", "tensorShape": {"dim": [{"size": "4"}, {"size": "2"}]}}}, "dtype": {"type": "DT_INT32"}}}, {"name": "4899", "op": "Const", "attr": {"value": {"tensor": {"dtype": "DT_FLOAT", "tensorShape": {"dim": [{"size": "3"}, {"size": "3"}, {"size": "16"}, {"size": "32"}]}}}, "dtype": {"type": "DT_FLOAT"}}}, {"name": "4901", "op": "Const", "attr": {"value": {"tensor": {"dtype": "DT_FLOAT", "tensorShape": {"dim": [{"size": "32"}]}}}, "dtype": {"type": "DT_FLOAT"}}}, {"name": "4903", "op": "Const", "attr": {"dtype": {"type": "DT_FLOAT"}, "value": {"tensor": {"dtype": "DT_FLOAT", "tensorShape": {"dim": [{"size": "1"}, {"size": "1"}, {"size": "32"}, {"size": "32"}]}}}}}, {"name": "4905", "op": "Const", "attr": {"dtype": {"type": "DT_FLOAT"}, "value": {"tensor": {"dtype": "DT_FLOAT", "tensorShape": {"dim": [{"size": "32"}]}}}}}, {"name": "4907", "op": "Const", "attr": {"value": {"tensor": {"dtype": "DT_INT64", "tensorShape": {"dim": [{"size": "4"}]}}}, "dtype": {"type": "DT_INT64"}}}, {"name": "4909", "op": "Const", "attr": {"dtype": {"type": "DT_INT64"}, "value": {"tensor": {"dtype": "DT_INT64", "tensorShape": {"dim": [{"size": "4"}]}}}}}, {"name": "PartitionedCall/model_3/tf.strided_slice_1/ones_like", "op": "Const", "attr": {"dtype": {"type": "DT_INT64"}, "value": {"tensor": {"dtype": "DT_INT64", "tensorShape": {"dim": [{"size": "4"}]}}}}}, {"name": "4911", "op": "Const", "attr": {"value": {"tensor": {"dtype": "DT_FLOAT", "tensorShape": {"dim": [{"size": "3"}, {"size": "3"}, {"size": "16"}, {"size": "16"}]}}}, "dtype": {"type": "DT_FLOAT"}}}, {"name": "4913", "op": "Const", "attr": {"value": {"tensor": {"dtype": "DT_FLOAT", "tensorShape": {"dim": [{"size": "16"}]}}}, "dtype": {"type": "DT_FLOAT"}}}, {"name": "4915", "op": "Const", "attr": {"dtype": {"type": "DT_FLOAT"}, "value": {"tensor": {"dtype": "DT_FLOAT", "tensorShape": {"dim": [{"size": "3"}, {"size": "3"}, {"size": "16"}, {"size": "16"}]}}}}}, {"name": "4917", "op": "Const", "attr": {"dtype": {"type": "DT_FLOAT"}, "value": {"tensor": {"dtype": "DT_FLOAT", "tensorShape": {"dim": [{"size": "16"}]}}}}}, {"name": "PartitionedCall/model_3/tf.concat/concat/axis", "op": "Const", "attr": {"dtype": {"type": "DT_INT32"}, "value": {"tensor": {"dtype": "DT_INT32", "tensorShape": {}}}}}, {"name": "4923", "op": "Const", "attr": {"dtype": {"type": "DT_FLOAT"}, "value": {"tensor": {"dtype": "DT_FLOAT", "tensorShape": {"dim": [{"size": "1"}, {"size": "1"}, {"size": "48"}, {"size": "32"}]}}}}}, {"name": "4925", "op": "Const", "attr": {"dtype": {"type": "DT_FLOAT"}, "value": {"tensor": {"dtype": "DT_FLOAT", "tensorShape": {"dim": [{"size": "32"}]}}}}}, {"name": "4927", "op": "Const", "attr": {"dtype": {"type": "DT_INT32"}, "value": {"tensor": {"dtype": "DT_INT32", "tensorShape": {"dim": [{"size": "4"}, {"size": "2"}]}}}}}, {"name": "4929", "op": "Const", "attr": {"value": {"tensor": {"dtype": "DT_FLOAT", "tensorShape": {"dim": [{"size": "3"}, {"size": "3"}, {"size": "32"}, {"size": "64"}]}}}, "dtype": {"type": "DT_FLOAT"}}}, {"name": "4931", "op": "Const", "attr": {"value": {"tensor": {"dtype": "DT_FLOAT", "tensorShape": {"dim": [{"size": "64"}]}}}, "dtype": {"type": "DT_FLOAT"}}}, {"name": "4933", "op": "Const", "attr": {"value": {"tensor": {"dtype": "DT_FLOAT", "tensorShape": {"dim": [{"size": "1"}, {"size": "1"}, {"size": "64"}, {"size": "64"}]}}}, "dtype": {"type": "DT_FLOAT"}}}, {"name": "4935", "op": "Const", "attr": {"dtype": {"type": "DT_FLOAT"}, "value": {"tensor": {"dtype": "DT_FLOAT", "tensorShape": {"dim": [{"size": "64"}]}}}}}, {"name": "4937", "op": "Const", "attr": {"value": {"tensor": {"dtype": "DT_INT64", "tensorShape": {"dim": [{"size": "4"}]}}}, "dtype": {"type": "DT_INT64"}}}, {"name": "4939", "op": "Const", "attr": {"value": {"tensor": {"dtype": "DT_INT64", "tensorShape": {"dim": [{"size": "4"}]}}}, "dtype": {"type": "DT_INT64"}}}, {"name": "PartitionedCall/model_3/tf.strided_slice_3/ones_like", "op": "Const", "attr": {"value": {"tensor": {"dtype": "DT_INT64", "tensorShape": {"dim": [{"size": "4"}]}}}, "dtype": {"type": "DT_INT64"}}}, {"name": "4941", "op": "Const", "attr": {"dtype": {"type": "DT_FLOAT"}, "value": {"tensor": {"dtype": "DT_FLOAT", "tensorShape": {"dim": [{"size": "3"}, {"size": "3"}, {"size": "32"}, {"size": "32"}]}}}}}, {"name": "4943", "op": "Const", "attr": {"value": {"tensor": {"dtype": "DT_FLOAT", "tensorShape": {"dim": [{"size": "32"}]}}}, "dtype": {"type": "DT_FLOAT"}}}, {"name": "4945", "op": "Const", "attr": {"value": {"tensor": {"dtype": "DT_FLOAT", "tensorShape": {"dim": [{"size": "3"}, {"size": "3"}, {"size": "32"}, {"size": "32"}]}}}, "dtype": {"type": "DT_FLOAT"}}}, {"name": "4947", "op": "Const", "attr": {"value": {"tensor": {"dtype": "DT_FLOAT", "tensorShape": {"dim": [{"size": "32"}]}}}, "dtype": {"type": "DT_FLOAT"}}}, {"name": "4949", "op": "Const", "attr": {"dtype": {"type": "DT_FLOAT"}, "value": {"tensor": {"dtype": "DT_FLOAT", "tensorShape": {"dim": [{"size": "3"}, {"size": "3"}, {"size": "32"}, {"size": "32"}]}}}}}, {"name": "4951", "op": "Const", "attr": {"value": {"tensor": {"dtype": "DT_FLOAT", "tensorShape": {"dim": [{"size": "32"}]}}}, "dtype": {"type": "DT_FLOAT"}}}, {"name": "4953", "op": "Const", "attr": {"dtype": {"type": "DT_FLOAT"}, "value": {"tensor": {"dtype": "DT_FLOAT", "tensorShape": {"dim": [{"size": "3"}, {"size": "3"}, {"size": "32"}, {"size": "32"}]}}}}}, {"name": "4955", "op": "Const", "attr": {"dtype": {"type": "DT_FLOAT"}, "value": {"tensor": {"dtype": "DT_FLOAT", "tensorShape": {"dim": [{"size": "32"}]}}}}}, {"name": "PartitionedCall/model_3/tf.concat_1/concat/axis", "op": "Const", "attr": {"value": {"tensor": {"dtype": "DT_INT32", "tensorShape": {}}}, "dtype": {"type": "DT_INT32"}}}, {"name": "4961", "op": "Const", "attr": {"dtype": {"type": "DT_FLOAT"}, "value": {"tensor": {"dtype": "DT_FLOAT", "tensorShape": {"dim": [{"size": "1"}, {"size": "1"}, {"size": "128"}, {"size": "64"}]}}}}}, {"name": "4963", "op": "Const", "attr": {"value": {"tensor": {"dtype": "DT_FLOAT", "tensorShape": {"dim": [{"size": "64"}]}}}, "dtype": {"type": "DT_FLOAT"}}}, {"name": "4965", "op": "Const", "attr": {"dtype": {"type": "DT_INT32"}, "value": {"tensor": {"dtype": "DT_INT32", "tensorShape": {"dim": [{"size": "4"}, {"size": "2"}]}}}}}, {"name": "4967", "op": "Const", "attr": {"value": {"tensor": {"dtype": "DT_FLOAT", "tensorShape": {"dim": [{"size": "3"}, {"size": "3"}, {"size": "64"}, {"size": "128"}]}}}, "dtype": {"type": "DT_FLOAT"}}}, {"name": "4969", "op": "Const", "attr": {"value": {"tensor": {"dtype": "DT_FLOAT", "tensorShape": {"dim": [{"size": "128"}]}}}, "dtype": {"type": "DT_FLOAT"}}}, {"name": "4971", "op": "Const", "attr": {"value": {"tensor": {"dtype": "DT_FLOAT", "tensorShape": {"dim": [{"size": "1"}, {"size": "1"}, {"size": "128"}, {"size": "128"}]}}}, "dtype": {"type": "DT_FLOAT"}}}, {"name": "4973", "op": "Const", "attr": {"value": {"tensor": {"dtype": "DT_FLOAT", "tensorShape": {"dim": [{"size": "128"}]}}}, "dtype": {"type": "DT_FLOAT"}}}, {"name": "4975", "op": "Const", "attr": {"dtype": {"type": "DT_INT64"}, "value": {"tensor": {"dtype": "DT_INT64", "tensorShape": {"dim": [{"size": "4"}]}}}}}, {"name": "4977", "op": "Const", "attr": {"value": {"tensor": {"dtype": "DT_INT64", "tensorShape": {"dim": [{"size": "4"}]}}}, "dtype": {"type": "DT_INT64"}}}, {"name": "PartitionedCall/model_3/tf.strided_slice_5/ones_like", "op": "Const", "attr": {"value": {"tensor": {"dtype": "DT_INT64", "tensorShape": {"dim": [{"size": "4"}]}}}, "dtype": {"type": "DT_INT64"}}}, {"name": "4979", "op": "Const", "attr": {"value": {"tensor": {"dtype": "DT_FLOAT", "tensorShape": {"dim": [{"size": "3"}, {"size": "3"}, {"size": "64"}, {"size": "64"}]}}}, "dtype": {"type": "DT_FLOAT"}}}, {"name": "4981", "op": "Const", "attr": {"dtype": {"type": "DT_FLOAT"}, "value": {"tensor": {"dtype": "DT_FLOAT", "tensorShape": {"dim": [{"size": "64"}]}}}}}, {"name": "4983", "op": "Const", "attr": {"dtype": {"type": "DT_FLOAT"}, "value": {"tensor": {"dtype": "DT_FLOAT", "tensorShape": {"dim": [{"size": "3"}, {"size": "3"}, {"size": "64"}, {"size": "64"}]}}}}}, {"name": "4985", "op": "Const", "attr": {"dtype": {"type": "DT_FLOAT"}, "value": {"tensor": {"dtype": "DT_FLOAT", "tensorShape": {"dim": [{"size": "64"}]}}}}}, {"name": "4987", "op": "Const", "attr": {"value": {"tensor": {"dtype": "DT_FLOAT", "tensorShape": {"dim": [{"size": "3"}, {"size": "3"}, {"size": "64"}, {"size": "64"}]}}}, "dtype": {"type": "DT_FLOAT"}}}, {"name": "4989", "op": "Const", "attr": {"value": {"tensor": {"dtype": "DT_FLOAT", "tensorShape": {"dim": [{"size": "64"}]}}}, "dtype": {"type": "DT_FLOAT"}}}, {"name": "4991", "op": "Const", "attr": {"dtype": {"type": "DT_FLOAT"}, "value": {"tensor": {"dtype": "DT_FLOAT", "tensorShape": {"dim": [{"size": "3"}, {"size": "3"}, {"size": "64"}, {"size": "64"}]}}}}}, {"name": "4993", "op": "Const", "attr": {"value": {"tensor": {"dtype": "DT_FLOAT", "tensorShape": {"dim": [{"size": "64"}]}}}, "dtype": {"type": "DT_FLOAT"}}}, {"name": "PartitionedCall/model_3/tf.concat_2/concat/axis", "op": "Const", "attr": {"value": {"tensor": {"dtype": "DT_INT32", "tensorShape": {}}}, "dtype": {"type": "DT_INT32"}}}, {"name": "4999", "op": "Const", "attr": {"value": {"tensor": {"dtype": "DT_FLOAT", "tensorShape": {"dim": [{"size": "1"}, {"size": "1"}, {"size": "256"}, {"size": "128"}]}}}, "dtype": {"type": "DT_FLOAT"}}}, {"name": "5001", "op": "Const", "attr": {"value": {"tensor": {"dtype": "DT_FLOAT", "tensorShape": {"dim": [{"size": "128"}]}}}, "dtype": {"type": "DT_FLOAT"}}}, {"name": "5003", "op": "Const", "attr": {"value": {"tensor": {"dtype": "DT_INT32", "tensorShape": {"dim": [{"size": "4"}, {"size": "2"}]}}}, "dtype": {"type": "DT_INT32"}}}, {"name": "5005", "op": "Const", "attr": {"dtype": {"type": "DT_FLOAT"}, "value": {"tensor": {"dtype": "DT_FLOAT", "tensorShape": {"dim": [{"size": "3"}, {"size": "3"}, {"size": "128"}, {"size": "256"}]}}}}}, {"name": "5007", "op": "Const", "attr": {"value": {"tensor": {"dtype": "DT_FLOAT", "tensorShape": {"dim": [{"size": "256"}]}}}, "dtype": {"type": "DT_FLOAT"}}}, {"name": "5009", "op": "Const", "attr": {"value": {"tensor": {"dtype": "DT_FLOAT", "tensorShape": {"dim": [{"size": "1"}, {"size": "1"}, {"size": "256"}, {"size": "256"}]}}}, "dtype": {"type": "DT_FLOAT"}}}, {"name": "5011", "op": "Const", "attr": {"dtype": {"type": "DT_FLOAT"}, "value": {"tensor": {"dtype": "DT_FLOAT", "tensorShape": {"dim": [{"size": "256"}]}}}}}, {"name": "5013", "op": "Const", "attr": {"dtype": {"type": "DT_INT64"}, "value": {"tensor": {"dtype": "DT_INT64", "tensorShape": {"dim": [{"size": "4"}]}}}}}, {"name": "5015", "op": "Const", "attr": {"dtype": {"type": "DT_INT64"}, "value": {"tensor": {"dtype": "DT_INT64", "tensorShape": {"dim": [{"size": "4"}]}}}}}, {"name": "PartitionedCall/model_3/tf.strided_slice_7/ones_like", "op": "Const", "attr": {"value": {"tensor": {"dtype": "DT_INT64", "tensorShape": {"dim": [{"size": "4"}]}}}, "dtype": {"type": "DT_INT64"}}}, {"name": "5017", "op": "Const", "attr": {"dtype": {"type": "DT_FLOAT"}, "value": {"tensor": {"dtype": "DT_FLOAT", "tensorShape": {"dim": [{"size": "3"}, {"size": "3"}, {"size": "128"}, {"size": "128"}]}}}}}, {"name": "5019", "op": "Const", "attr": {"dtype": {"type": "DT_FLOAT"}, "value": {"tensor": {"dtype": "DT_FLOAT", "tensorShape": {"dim": [{"size": "128"}]}}}}}, {"name": "5021", "op": "Const", "attr": {"dtype": {"type": "DT_FLOAT"}, "value": {"tensor": {"dtype": "DT_FLOAT", "tensorShape": {"dim": [{"size": "3"}, {"size": "3"}, {"size": "128"}, {"size": "128"}]}}}}}, {"name": "5023", "op": "Const", "attr": {"dtype": {"type": "DT_FLOAT"}, "value": {"tensor": {"dtype": "DT_FLOAT", "tensorShape": {"dim": [{"size": "128"}]}}}}}, {"name": "PartitionedCall/model_3/tf.concat_3/concat/axis", "op": "Const", "attr": {"dtype": {"type": "DT_INT32"}, "value": {"tensor": {"dtype": "DT_INT32", "tensorShape": {}}}}}, {"name": "5029", "op": "Const", "attr": {"dtype": {"type": "DT_FLOAT"}, "value": {"tensor": {"dtype": "DT_FLOAT", "tensorShape": {"dim": [{"size": "1"}, {"size": "1"}, {"size": "384"}, {"size": "256"}]}}}}}, {"name": "5031", "op": "Const", "attr": {"dtype": {"type": "DT_FLOAT"}, "value": {"tensor": {"dtype": "DT_FLOAT", "tensorShape": {"dim": [{"size": "256"}]}}}}}, {"name": "5033", "op": "Const", "attr": {"value": {"tensor": {"dtype": "DT_FLOAT", "tensorShape": {"dim": [{"size": "1"}, {"size": "1"}, {"size": "256"}, {"size": "128"}]}}}, "dtype": {"type": "DT_FLOAT"}}}, {"name": "5035", "op": "Const", "attr": {"dtype": {"type": "DT_FLOAT"}, "value": {"tensor": {"dtype": "DT_FLOAT", "tensorShape": {"dim": [{"size": "128"}]}}}}}, {"name": "PartitionedCall/model_3/tf.concat_4/concat/axis", "op": "Const", "attr": {"dtype": {"type": "DT_INT32"}, "value": {"tensor": {"dtype": "DT_INT32", "tensorShape": {}}}}}, {"name": "5037", "op": "Const", "attr": {"dtype": {"type": "DT_FLOAT"}, "value": {"tensor": {"dtype": "DT_FLOAT", "tensorShape": {"dim": [{"size": "1"}, {"size": "1"}, {"size": "512"}, {"size": "256"}]}}}}}, {"name": "5039", "op": "Const", "attr": {"dtype": {"type": "DT_FLOAT"}, "value": {"tensor": {"dtype": "DT_FLOAT", "tensorShape": {"dim": [{"size": "256"}]}}}}}, {"name": "PartitionedCall/model_3/tf.concat_589/concat/axis", "op": "Const", "attr": {"value": {"tensor": {"dtype": "DT_INT32", "tensorShape": {}}}, "dtype": {"type": "DT_INT32"}}}, {"name": "5125", "op": "Const", "attr": {"value": {"tensor": {"dtype": "DT_FLOAT", "tensorShape": {"dim": [{"size": "1"}, {"size": "1"}, {"size": "384"}, {"size": "256"}]}}}, "dtype": {"type": "DT_FLOAT"}}}, {"name": "5127", "op": "Const", "attr": {"dtype": {"type": "DT_FLOAT"}, "value": {"tensor": {"dtype": "DT_FLOAT", "tensorShape": {"dim": [{"size": "256"}]}}}}}, {"name": "5129", "op": "Const", "attr": {"dtype": {"type": "DT_INT64"}, "value": {"tensor": {"dtype": "DT_INT64", "tensorShape": {"dim": [{"size": "4"}]}}}}}, {"name": "5131", "op": "Const", "attr": {"dtype": {"type": "DT_INT64"}, "value": {"tensor": {"dtype": "DT_INT64", "tensorShape": {"dim": [{"size": "4"}]}}}}}, {"name": "PartitionedCall/model_3/tf.strided_slice_15/ones_like", "op": "Const", "attr": {"dtype": {"type": "DT_INT64"}, "value": {"tensor": {"dtype": "DT_INT64", "tensorShape": {"dim": [{"size": "4"}]}}}}}, {"name": "5133", "op": "Const", "attr": {"value": {"tensor": {"dtype": "DT_FLOAT", "tensorShape": {"dim": [{"size": "3"}, {"size": "3"}, {"size": "128"}, {"size": "128"}]}}}, "dtype": {"type": "DT_FLOAT"}}}, {"name": "5135", "op": "Const", "attr": {"dtype": {"type": "DT_FLOAT"}, "value": {"tensor": {"dtype": "DT_FLOAT", "tensorShape": {"dim": [{"size": "128"}]}}}}}, {"name": "5137", "op": "Const", "attr": {"value": {"tensor": {"dtype": "DT_FLOAT", "tensorShape": {"dim": [{"size": "3"}, {"size": "3"}, {"size": "128"}, {"size": "128"}]}}}, "dtype": {"type": "DT_FLOAT"}}}, {"name": "5139", "op": "Const", "attr": {"dtype": {"type": "DT_FLOAT"}, "value": {"tensor": {"dtype": "DT_FLOAT", "tensorShape": {"dim": [{"size": "128"}]}}}}}, {"name": "PartitionedCall/model_3/tf.concat_591/concat/axis", "op": "Const", "attr": {"value": {"tensor": {"dtype": "DT_INT32", "tensorShape": {}}}, "dtype": {"type": "DT_INT32"}}}, {"name": "5145", "op": "Const", "attr": {"value": {"tensor": {"dtype": "DT_FLOAT", "tensorShape": {"dim": [{"size": "1"}, {"size": "1"}, {"size": "384"}, {"size": "256"}]}}}, "dtype": {"type": "DT_FLOAT"}}}, {"name": "5147", "op": "Const", "attr": {"value": {"tensor": {"dtype": "DT_FLOAT", "tensorShape": {"dim": [{"size": "256"}]}}}, "dtype": {"type": "DT_FLOAT"}}}, {"name": "5155", "op": "Const", "attr": {"value": {"tensor": {"dtype": "DT_FLOAT", "tensorShape": {"dim": [{"size": "3"}, {"size": "3"}, {"size": "256"}, {"size": "80"}]}}}, "dtype": {"type": "DT_FLOAT"}}}, {"name": "5165", "op": "Const", "attr": {"value": {"tensor": {"dtype": "DT_FLOAT", "tensorShape": {"dim": [{"size": "80"}]}}}, "dtype": {"type": "DT_FLOAT"}}}, {"name": "5179", "op": "Const", "attr": {"dtype": {"type": "DT_FLOAT"}, "value": {"tensor": {"dtype": "DT_FLOAT", "tensorShape": {"dim": [{"size": "3"}, {"size": "3"}, {"size": "80"}, {"size": "80"}]}}}}}, {"name": "5189", "op": "Const", "attr": {"value": {"tensor": {"dtype": "DT_FLOAT", "tensorShape": {"dim": [{"size": "80"}]}}}, "dtype": {"type": "DT_FLOAT"}}}, {"name": "5201", "op": "Const", "attr": {"value": {"tensor": {"dtype": "DT_FLOAT", "tensorShape": {"dim": [{"size": "1"}, {"size": "1"}, {"size": "80"}, {"size": "80"}]}}}, "dtype": {"type": "DT_FLOAT"}}}, {"name": "5215", "op": "Const", "attr": {"value": {"tensor": {"dtype": "DT_FLOAT", "tensorShape": {"dim": [{"size": "80"}]}}}, "dtype": {"type": "DT_FLOAT"}}}, {"name": "PartitionedCall/model_3/tf.concat_592/concat/axis", "op": "Const", "attr": {"dtype": {"type": "DT_INT32"}, "value": {"tensor": {"dtype": "DT_INT32", "tensorShape": {}}}}}, {"name": "PartitionedCall/model_3/tf.compat.v1.transpose_1158/transpose/perm", "op": "Const", "attr": {"dtype": {"type": "DT_INT32"}, "value": {"tensor": {"dtype": "DT_INT32", "tensorShape": {"dim": [{"size": "4"}]}}}}}, {"name": "PartitionedCall/model_3/tf.reshape_2/Reshape/shape", "op": "Const", "attr": {"dtype": {"type": "DT_INT32"}, "value": {"tensor": {"dtype": "DT_INT32", "tensorShape": {"dim": [{"size": "3"}]}}}}}, {"name": "PartitionedCall/model_3/tf.concat_593/concat/axis", "op": "Const", "attr": {"dtype": {"type": "DT_INT32"}, "value": {"tensor": {"dtype": "DT_INT32", "tensorShape": {}}}}}, {"name": "5241", "op": "Const", "attr": {"value": {"tensor": {"dtype": "DT_INT64", "tensorShape": {"dim": [{"size": "3"}]}}}, "dtype": {"type": "DT_INT64"}}}, {"name": "5243", "op": "Const", "attr": {"dtype": {"type": "DT_INT64"}, "value": {"tensor": {"dtype": "DT_INT64", "tensorShape": {"dim": [{"size": "3"}]}}}}}, {"name": "PartitionedCall/model_3/tf.strided_slice_17/StridedSlice/strides", "op": "Const", "attr": {"dtype": {"type": "DT_INT64"}, "value": {"tensor": {"dtype": "DT_INT64", "tensorShape": {"dim": [{"size": "3"}]}}}}}, {"name": "PartitionedCall/model_3/output0/concat/axis", "op": "Const", "attr": {"value": {"tensor": {"dtype": "DT_INT32", "tensorShape": {}}}, "dtype": {"type": "DT_INT32"}}}, {"name": "x", "op": "Placeholder", "attr": {"shape": {"shape": {"dim": [{"size": "1"}, {"size": "640"}, {"size": "640"}, {"size": "3"}]}}, "dtype": {"type": "DT_FLOAT"}}}, {"name": "PartitionedCall/model_3/tf.compat.v1.pad/Pad", "op": "Pad", "input": ["x", "4891"], "attr": {"T": {"type": "DT_FLOAT"}, "Tpaddings": {"type": "DT_INT32"}}}, {"name": "PartitionedCall/model_3/tf.math.add/Add", "op": "_FusedConv2D", "input": ["PartitionedCall/model_3/tf.compat.v1.pad/Pad", "4893", "4895"], "device": "/device:CPU:0", "attr": {"num_args": {"i": "1"}, "epsilon": {"f": 0.0}, "T": {"type": "DT_FLOAT"}, "dilations": {"list": {"i": ["1", "1", "1", "1"]}}, "TArgs": {"list": {"type": ["DT_FLOAT"]}}, "explicit_paddings": {"list": {}}, "padding": {"s": "VkFMSUQ="}, "strides": {"list": {"i": ["1", "2", "2", "1"]}}, "fused_ops": {"list": {"s": ["Qmlhc0FkZA=="]}}, "num_host_args": {"i": "0"}, "leakyrelu_alpha": {"f": 0.2}, "data_format": {"s": "TkhXQw=="}, "filter_format": {"s": "SFdJTw=="}, "use_cudnn_on_gpu": {"b": true}}}, {"name": "PartitionedCall/model_3/tf.math.sigmoid/Sigmoid", "op": "Sigmoid", "input": ["PartitionedCall/model_3/tf.math.add/Add"], "attr": {"T": {"type": "DT_FLOAT"}}}, {"name": "PartitionedCall/model_3/tf.math.multiply_2/Mul", "op": "Mul", "input": ["PartitionedCall/model_3/tf.math.add/Add", "PartitionedCall/model_3/tf.math.sigmoid/Sigmoid"], "attr": {"T": {"type": "DT_FLOAT"}}}, {"name": "PartitionedCall/model_3/tf.compat.v1.pad_1/Pad", "op": "Pad", "input": ["PartitionedCall/model_3/tf.math.multiply_2/Mul", "4897"], "attr": {"T": {"type": "DT_FLOAT"}, "Tpaddings": {"type": "DT_INT32"}}}, {"name": "PartitionedCall/model_3/tf.math.add_1/Add", "op": "_FusedConv2D", "input": ["PartitionedCall/model_3/tf.compat.v1.pad_1/Pad", "4899", "4901"], "device": "/device:CPU:0", "attr": {"dilations": {"list": {"i": ["1", "1", "1", "1"]}}, "leakyrelu_alpha": {"f": 0.2}, "TArgs": {"list": {"type": ["DT_FLOAT"]}}, "num_args": {"i": "1"}, "data_format": {"s": "TkhXQw=="}, "filter_format": {"s": "SFdJTw=="}, "use_cudnn_on_gpu": {"b": true}, "explicit_paddings": {"list": {}}, "strides": {"list": {"i": ["1", "2", "2", "1"]}}, "fused_ops": {"list": {"s": ["Qmlhc0FkZA=="]}}, "num_host_args": {"i": "0"}, "epsilon": {"f": 0.0}, "padding": {"s": "VkFMSUQ="}, "T": {"type": "DT_FLOAT"}}}, {"name": "PartitionedCall/model_3/tf.math.sigmoid_1/Sigmoid", "op": "Sigmoid", "input": ["PartitionedCall/model_3/tf.math.add_1/Add"], "attr": {"T": {"type": "DT_FLOAT"}}}, {"name": "PartitionedCall/model_3/tf.math.multiply_5/Mul", "op": "Mul", "input": ["PartitionedCall/model_3/tf.math.add_1/Add", "PartitionedCall/model_3/tf.math.sigmoid_1/Sigmoid"], "attr": {"T": {"type": "DT_FLOAT"}}}, {"name": "PartitionedCall/model_3/tf.math.add_2/Add", "op": "_FusedConv2D", "input": ["PartitionedCall/model_3/tf.math.multiply_5/Mul", "4903", "4905"], "device": "/device:CPU:0", "attr": {"num_host_args": {"i": "0"}, "explicit_paddings": {"list": {}}, "fused_ops": {"list": {"s": ["Qmlhc0FkZA=="]}}, "filter_format": {"s": "SFdJTw=="}, "epsilon": {"f": 0.0}, "T": {"type": "DT_FLOAT"}, "strides": {"list": {"i": ["1", "1", "1", "1"]}}, "use_cudnn_on_gpu": {"b": true}, "dilations": {"list": {"i": ["1", "1", "1", "1"]}}, "data_format": {"s": "TkhXQw=="}, "TArgs": {"list": {"type": ["DT_FLOAT"]}}, "leakyrelu_alpha": {"f": 0.2}, "padding": {"s": "U0FNRQ=="}, "num_args": {"i": "1"}}}, {"name": "PartitionedCall/model_3/tf.math.sigmoid_2/Sigmoid", "op": "Sigmoid", "input": ["PartitionedCall/model_3/tf.math.add_2/Add"], "attr": {"T": {"type": "DT_FLOAT"}}}, {"name": "PartitionedCall/model_3/tf.math.multiply_8/Mul", "op": "Mul", "input": ["PartitionedCall/model_3/tf.math.add_2/Add", "PartitionedCall/model_3/tf.math.sigmoid_2/Sigmoid"], "attr": {"T": {"type": "DT_FLOAT"}}}, {"name": "PartitionedCall/model_3/tf.strided_slice/StridedSlice", "op": "StridedSlice", "input": ["PartitionedCall/model_3/tf.math.multiply_8/Mul", "4919", "4921", "PartitionedCall/model_3/tf.strided_slice/ones_like"], "attr": {"new_axis_mask": {"i": "0"}, "T": {"type": "DT_FLOAT"}, "begin_mask": {"i": "15"}, "end_mask": {"i": "7"}, "shrink_axis_mask": {"i": "0"}, "Index": {"type": "DT_INT64"}, "ellipsis_mask": {"i": "0"}}}, {"name": "PartitionedCall/model_3/tf.strided_slice_1/StridedSlice", "op": "StridedSlice", "input": ["PartitionedCall/model_3/tf.math.multiply_8/Mul", "4907", "4909", "PartitionedCall/model_3/tf.strided_slice_1/ones_like"], "attr": {"new_axis_mask": {"i": "0"}, "shrink_axis_mask": {"i": "0"}, "Index": {"type": "DT_INT64"}, "ellipsis_mask": {"i": "0"}, "begin_mask": {"i": "7"}, "end_mask": {"i": "7"}, "T": {"type": "DT_FLOAT"}}}, {"name": "PartitionedCall/model_3/tf.math.add_3/Add", "op": "_FusedConv2D", "input": ["PartitionedCall/model_3/tf.strided_slice_1/StridedSlice", "4911", "4913"], "device": "/device:CPU:0", "attr": {"num_args": {"i": "1"}, "use_cudnn_on_gpu": {"b": true}, "padding": {"s": "U0FNRQ=="}, "TArgs": {"list": {"type": ["DT_FLOAT"]}}, "data_format": {"s": "TkhXQw=="}, "dilations": {"list": {"i": ["1", "1", "1", "1"]}}, "num_host_args": {"i": "0"}, "explicit_paddings": {"list": {}}, "leakyrelu_alpha": {"f": 0.2}, "filter_format": {"s": "SFdJTw=="}, "epsilon": {"f": 0.0}, "T": {"type": "DT_FLOAT"}, "fused_ops": {"list": {"s": ["Qmlhc0FkZA=="]}}, "strides": {"list": {"i": ["1", "1", "1", "1"]}}}}, {"name": "PartitionedCall/model_3/tf.math.sigmoid_3/Sigmoid", "op": "Sigmoid", "input": ["PartitionedCall/model_3/tf.math.add_3/Add"], "attr": {"T": {"type": "DT_FLOAT"}}}, {"name": "PartitionedCall/model_3/tf.math.multiply_11/Mul", "op": "Mul", "input": ["PartitionedCall/model_3/tf.math.add_3/Add", "PartitionedCall/model_3/tf.math.sigmoid_3/Sigmoid"], "attr": {"T": {"type": "DT_FLOAT"}}}, {"name": "PartitionedCall/model_3/tf.math.add_4/Add", "op": "_FusedConv2D", "input": ["PartitionedCall/model_3/tf.math.multiply_11/Mul", "4915", "4917"], "device": "/device:CPU:0", "attr": {"dilations": {"list": {"i": ["1", "1", "1", "1"]}}, "TArgs": {"list": {"type": ["DT_FLOAT"]}}, "padding": {"s": "U0FNRQ=="}, "use_cudnn_on_gpu": {"b": true}, "explicit_paddings": {"list": {}}, "T": {"type": "DT_FLOAT"}, "filter_format": {"s": "SFdJTw=="}, "data_format": {"s": "TkhXQw=="}, "num_args": {"i": "1"}, "strides": {"list": {"i": ["1", "1", "1", "1"]}}, "fused_ops": {"list": {"s": ["Qmlhc0FkZA=="]}}, "epsilon": {"f": 0.0}, "leakyrelu_alpha": {"f": 0.2}, "num_host_args": {"i": "0"}}}, {"name": "PartitionedCall/model_3/tf.math.sigmoid_4/Sigmoid", "op": "Sigmoid", "input": ["PartitionedCall/model_3/tf.math.add_4/Add"], "attr": {"T": {"type": "DT_FLOAT"}}}, {"name": "PartitionedCall/model_3/tf.math.multiply_14/Mul", "op": "Mul", "input": ["PartitionedCall/model_3/tf.math.add_4/Add", "PartitionedCall/model_3/tf.math.sigmoid_4/Sigmoid"], "attr": {"T": {"type": "DT_FLOAT"}}}, {"name": "PartitionedCall/model_3/tf.math.add_5/Add", "op": "AddV2", "input": ["PartitionedCall/model_3/tf.strided_slice_1/StridedSlice", "PartitionedCall/model_3/tf.math.multiply_14/Mul"], "attr": {"T": {"type": "DT_FLOAT"}}}, {"name": "PartitionedCall/model_3/tf.concat/concat", "op": "ConcatV2", "input": ["PartitionedCall/model_3/tf.strided_slice/StridedSlice", "PartitionedCall/model_3/tf.strided_slice_1/StridedSlice", "PartitionedCall/model_3/tf.math.add_5/Add", "PartitionedCall/model_3/tf.concat/concat/axis"], "attr": {"Tidx": {"type": "DT_INT32"}, "T": {"type": "DT_FLOAT"}, "N": {"i": "3"}}}, {"name": "PartitionedCall/model_3/tf.math.add_6/Add", "op": "_FusedConv2D", "input": ["PartitionedCall/model_3/tf.concat/concat", "4923", "4925"], "device": "/device:CPU:0", "attr": {"fused_ops": {"list": {"s": ["Qmlhc0FkZA=="]}}, "filter_format": {"s": "SFdJTw=="}, "T": {"type": "DT_FLOAT"}, "epsilon": {"f": 0.0}, "dilations": {"list": {"i": ["1", "1", "1", "1"]}}, "use_cudnn_on_gpu": {"b": true}, "strides": {"list": {"i": ["1", "1", "1", "1"]}}, "TArgs": {"list": {"type": ["DT_FLOAT"]}}, "data_format": {"s": "TkhXQw=="}, "leakyrelu_alpha": {"f": 0.2}, "padding": {"s": "U0FNRQ=="}, "num_args": {"i": "1"}, "num_host_args": {"i": "0"}, "explicit_paddings": {"list": {}}}}, {"name": "PartitionedCall/model_3/tf.math.sigmoid_5/Sigmoid", "op": "Sigmoid", "input": ["PartitionedCall/model_3/tf.math.add_6/Add"], "attr": {"T": {"type": "DT_FLOAT"}}}, {"name": "PartitionedCall/model_3/tf.math.multiply_19/Mul", "op": "Mul", "input": ["PartitionedCall/model_3/tf.math.add_6/Add", "PartitionedCall/model_3/tf.math.sigmoid_5/Sigmoid"], "attr": {"T": {"type": "DT_FLOAT"}}}, {"name": "PartitionedCall/model_3/tf.compat.v1.pad_2/Pad", "op": "Pad", "input": ["PartitionedCall/model_3/tf.math.multiply_19/Mul", "4927"], "attr": {"T": {"type": "DT_FLOAT"}, "Tpaddings": {"type": "DT_INT32"}}}, {"name": "PartitionedCall/model_3/tf.math.add_7/Add", "op": "_FusedConv2D", "input": ["PartitionedCall/model_3/tf.compat.v1.pad_2/Pad", "4929", "4931"], "device": "/device:CPU:0", "attr": {"data_format": {"s": "TkhXQw=="}, "epsilon": {"f": 0.0}, "dilations": {"list": {"i": ["1", "1", "1", "1"]}}, "TArgs": {"list": {"type": ["DT_FLOAT"]}}, "explicit_paddings": {"list": {}}, "fused_ops": {"list": {"s": ["Qmlhc0FkZA=="]}}, "padding": {"s": "VkFMSUQ="}, "filter_format": {"s": "SFdJTw=="}, "num_args": {"i": "1"}, "num_host_args": {"i": "0"}, "T": {"type": "DT_FLOAT"}, "leakyrelu_alpha": {"f": 0.2}, "use_cudnn_on_gpu": {"b": true}, "strides": {"list": {"i": ["1", "2", "2", "1"]}}}}, {"name": "PartitionedCall/model_3/tf.math.sigmoid_6/Sigmoid", "op": "Sigmoid", "input": ["PartitionedCall/model_3/tf.math.add_7/Add"], "attr": {"T": {"type": "DT_FLOAT"}}}, {"name": "PartitionedCall/model_3/tf.math.multiply_22/Mul", "op": "Mul", "input": ["PartitionedCall/model_3/tf.math.add_7/Add", "PartitionedCall/model_3/tf.math.sigmoid_6/Sigmoid"], "attr": {"T": {"type": "DT_FLOAT"}}}, {"name": "PartitionedCall/model_3/tf.math.add_8/Add", "op": "_FusedConv2D", "input": ["PartitionedCall/model_3/tf.math.multiply_22/Mul", "4933", "4935"], "device": "/device:CPU:0", "attr": {"num_host_args": {"i": "0"}, "filter_format": {"s": "SFdJTw=="}, "use_cudnn_on_gpu": {"b": true}, "strides": {"list": {"i": ["1", "1", "1", "1"]}}, "explicit_paddings": {"list": {}}, "padding": {"s": "U0FNRQ=="}, "leakyrelu_alpha": {"f": 0.2}, "TArgs": {"list": {"type": ["DT_FLOAT"]}}, "num_args": {"i": "1"}, "data_format": {"s": "TkhXQw=="}, "T": {"type": "DT_FLOAT"}, "fused_ops": {"list": {"s": ["Qmlhc0FkZA=="]}}, "epsilon": {"f": 0.0}, "dilations": {"list": {"i": ["1", "1", "1", "1"]}}}}, {"name": "PartitionedCall/model_3/tf.math.sigmoid_7/Sigmoid", "op": "Sigmoid", "input": ["PartitionedCall/model_3/tf.math.add_8/Add"], "attr": {"T": {"type": "DT_FLOAT"}}}, {"name": "PartitionedCall/model_3/tf.math.multiply_25/Mul", "op": "Mul", "input": ["PartitionedCall/model_3/tf.math.add_8/Add", "PartitionedCall/model_3/tf.math.sigmoid_7/Sigmoid"], "attr": {"T": {"type": "DT_FLOAT"}}}, {"name": "PartitionedCall/model_3/tf.strided_slice_2/StridedSlice", "op": "StridedSlice", "input": ["PartitionedCall/model_3/tf.math.multiply_25/Mul", "4957", "4959", "PartitionedCall/model_3/tf.strided_slice_2/ones_like"], "attr": {"shrink_axis_mask": {"i": "0"}, "new_axis_mask": {"i": "0"}, "begin_mask": {"i": "15"}, "end_mask": {"i": "7"}, "Index": {"type": "DT_INT64"}, "T": {"type": "DT_FLOAT"}, "ellipsis_mask": {"i": "0"}}}, {"name": "PartitionedCall/model_3/tf.strided_slice_3/StridedSlice", "op": "StridedSlice", "input": ["PartitionedCall/model_3/tf.math.multiply_25/Mul", "4937", "4939", "PartitionedCall/model_3/tf.strided_slice_3/ones_like"], "attr": {"begin_mask": {"i": "7"}, "end_mask": {"i": "7"}, "Index": {"type": "DT_INT64"}, "new_axis_mask": {"i": "0"}, "T": {"type": "DT_FLOAT"}, "shrink_axis_mask": {"i": "0"}, "ellipsis_mask": {"i": "0"}}}, {"name": "PartitionedCall/model_3/tf.math.add_9/Add", "op": "_FusedConv2D", "input": ["PartitionedCall/model_3/tf.strided_slice_3/StridedSlice", "4941", "4943"], "device": "/device:CPU:0", "attr": {"num_args": {"i": "1"}, "num_host_args": {"i": "0"}, "leakyrelu_alpha": {"f": 0.2}, "TArgs": {"list": {"type": ["DT_FLOAT"]}}, "strides": {"list": {"i": ["1", "1", "1", "1"]}}, "fused_ops": {"list": {"s": ["Qmlhc0FkZA=="]}}, "dilations": {"list": {"i": ["1", "1", "1", "1"]}}, "T": {"type": "DT_FLOAT"}, "use_cudnn_on_gpu": {"b": true}, "explicit_paddings": {"list": {}}, "epsilon": {"f": 0.0}, "data_format": {"s": "TkhXQw=="}, "filter_format": {"s": "SFdJTw=="}, "padding": {"s": "U0FNRQ=="}}}, {"name": "PartitionedCall/model_3/tf.math.sigmoid_8/Sigmoid", "op": "Sigmoid", "input": ["PartitionedCall/model_3/tf.math.add_9/Add"], "attr": {"T": {"type": "DT_FLOAT"}}}, {"name": "PartitionedCall/model_3/tf.math.multiply_28/Mul", "op": "Mul", "input": ["PartitionedCall/model_3/tf.math.add_9/Add", "PartitionedCall/model_3/tf.math.sigmoid_8/Sigmoid"], "attr": {"T": {"type": "DT_FLOAT"}}}, {"name": "PartitionedCall/model_3/tf.math.add_10/Add", "op": "_FusedConv2D", "input": ["PartitionedCall/model_3/tf.math.multiply_28/Mul", "4945", "4947"], "device": "/device:CPU:0", "attr": {"padding": {"s": "U0FNRQ=="}, "fused_ops": {"list": {"s": ["Qmlhc0FkZA=="]}}, "epsilon": {"f": 0.0}, "dilations": {"list": {"i": ["1", "1", "1", "1"]}}, "num_args": {"i": "1"}, "leakyrelu_alpha": {"f": 0.2}, "use_cudnn_on_gpu": {"b": true}, "num_host_args": {"i": "0"}, "explicit_paddings": {"list": {}}, "filter_format": {"s": "SFdJTw=="}, "strides": {"list": {"i": ["1", "1", "1", "1"]}}, "data_format": {"s": "TkhXQw=="}, "T": {"type": "DT_FLOAT"}, "TArgs": {"list": {"type": ["DT_FLOAT"]}}}}, {"name": "PartitionedCall/model_3/tf.math.sigmoid_9/Sigmoid", "op": "Sigmoid", "input": ["PartitionedCall/model_3/tf.math.add_10/Add"], "attr": {"T": {"type": "DT_FLOAT"}}}, {"name": "PartitionedCall/model_3/tf.math.multiply_31/Mul", "op": "Mul", "input": ["PartitionedCall/model_3/tf.math.add_10/Add", "PartitionedCall/model_3/tf.math.sigmoid_9/Sigmoid"], "attr": {"T": {"type": "DT_FLOAT"}}}, {"name": "PartitionedCall/model_3/tf.math.add_11/Add", "op": "AddV2", "input": ["PartitionedCall/model_3/tf.strided_slice_3/StridedSlice", "PartitionedCall/model_3/tf.math.multiply_31/Mul"], "attr": {"T": {"type": "DT_FLOAT"}}}, {"name": "PartitionedCall/model_3/tf.math.add_12/Add", "op": "_FusedConv2D", "input": ["PartitionedCall/model_3/tf.math.add_11/Add", "4949", "4951"], "device": "/device:CPU:0", "attr": {"filter_format": {"s": "SFdJTw=="}, "TArgs": {"list": {"type": ["DT_FLOAT"]}}, "num_host_args": {"i": "0"}, "strides": {"list": {"i": ["1", "1", "1", "1"]}}, "dilations": {"list": {"i": ["1", "1", "1", "1"]}}, "fused_ops": {"list": {"s": ["Qmlhc0FkZA=="]}}, "use_cudnn_on_gpu": {"b": true}, "padding": {"s": "U0FNRQ=="}, "epsilon": {"f": 0.0}, "explicit_paddings": {"list": {}}, "T": {"type": "DT_FLOAT"}, "data_format": {"s": "TkhXQw=="}, "num_args": {"i": "1"}, "leakyrelu_alpha": {"f": 0.2}}}, {"name": "PartitionedCall/model_3/tf.math.sigmoid_10/Sigmoid", "op": "Sigmoid", "input": ["PartitionedCall/model_3/tf.math.add_12/Add"], "attr": {"T": {"type": "DT_FLOAT"}}}, {"name": "PartitionedCall/model_3/tf.math.multiply_36/Mul", "op": "Mul", "input": ["PartitionedCall/model_3/tf.math.add_12/Add", "PartitionedCall/model_3/tf.math.sigmoid_10/Sigmoid"], "attr": {"T": {"type": "DT_FLOAT"}}}, {"name": "PartitionedCall/model_3/tf.math.add_13/Add", "op": "_FusedConv2D", "input": ["PartitionedCall/model_3/tf.math.multiply_36/Mul", "4953", "4955"], "device": "/device:CPU:0", "attr": {"filter_format": {"s": "SFdJTw=="}, "strides": {"list": {"i": ["1", "1", "1", "1"]}}, "TArgs": {"list": {"type": ["DT_FLOAT"]}}, "data_format": {"s": "TkhXQw=="}, "leakyrelu_alpha": {"f": 0.2}, "num_args": {"i": "1"}, "padding": {"s": "U0FNRQ=="}, "T": {"type": "DT_FLOAT"}, "use_cudnn_on_gpu": {"b": true}, "explicit_paddings": {"list": {}}, "fused_ops": {"list": {"s": ["Qmlhc0FkZA=="]}}, "dilations": {"list": {"i": ["1", "1", "1", "1"]}}, "num_host_args": {"i": "0"}, "epsilon": {"f": 0.0}}}, {"name": "PartitionedCall/model_3/tf.math.sigmoid_11/Sigmoid", "op": "Sigmoid", "input": ["PartitionedCall/model_3/tf.math.add_13/Add"], "attr": {"T": {"type": "DT_FLOAT"}}}, {"name": "PartitionedCall/model_3/tf.math.multiply_39/Mul", "op": "Mul", "input": ["PartitionedCall/model_3/tf.math.add_13/Add", "PartitionedCall/model_3/tf.math.sigmoid_11/Sigmoid"], "attr": {"T": {"type": "DT_FLOAT"}}}, {"name": "PartitionedCall/model_3/tf.math.add_14/Add", "op": "AddV2", "input": ["PartitionedCall/model_3/tf.math.add_11/Add", "PartitionedCall/model_3/tf.math.multiply_39/Mul"], "attr": {"T": {"type": "DT_FLOAT"}}}, {"name": "PartitionedCall/model_3/tf.concat_1/concat", "op": "ConcatV2", "input": ["PartitionedCall/model_3/tf.strided_slice_2/StridedSlice", "PartitionedCall/model_3/tf.strided_slice_3/StridedSlice", "PartitionedCall/model_3/tf.math.add_11/Add", "PartitionedCall/model_3/tf.math.add_14/Add", "PartitionedCall/model_3/tf.concat_1/concat/axis"], "attr": {"N": {"i": "4"}, "Tidx": {"type": "DT_INT32"}, "T": {"type": "DT_FLOAT"}}}, {"name": "PartitionedCall/model_3/tf.math.add_15/Add", "op": "_FusedConv2D", "input": ["PartitionedCall/model_3/tf.concat_1/concat", "4961", "4963"], "device": "/device:CPU:0", "attr": {"explicit_paddings": {"list": {}}, "TArgs": {"list": {"type": ["DT_FLOAT"]}}, "T": {"type": "DT_FLOAT"}, "use_cudnn_on_gpu": {"b": true}, "num_host_args": {"i": "0"}, "data_format": {"s": "TkhXQw=="}, "fused_ops": {"list": {"s": ["Qmlhc0FkZA=="]}}, "dilations": {"list": {"i": ["1", "1", "1", "1"]}}, "padding": {"s": "U0FNRQ=="}, "strides": {"list": {"i": ["1", "1", "1", "1"]}}, "epsilon": {"f": 0.0}, "filter_format": {"s": "SFdJTw=="}, "num_args": {"i": "1"}, "leakyrelu_alpha": {"f": 0.2}}}, {"name": "PartitionedCall/model_3/tf.math.sigmoid_12/Sigmoid", "op": "Sigmoid", "input": ["PartitionedCall/model_3/tf.math.add_15/Add"], "attr": {"T": {"type": "DT_FLOAT"}}}, {"name": "PartitionedCall/model_3/tf.math.multiply_44/Mul", "op": "Mul", "input": ["PartitionedCall/model_3/tf.math.add_15/Add", "PartitionedCall/model_3/tf.math.sigmoid_12/Sigmoid"], "attr": {"T": {"type": "DT_FLOAT"}}}, {"name": "PartitionedCall/model_3/tf.compat.v1.pad_3/Pad", "op": "Pad", "input": ["PartitionedCall/model_3/tf.math.multiply_44/Mul", "4965"], "attr": {"T": {"type": "DT_FLOAT"}, "Tpaddings": {"type": "DT_INT32"}}}, {"name": "PartitionedCall/model_3/tf.math.add_16/Add", "op": "_FusedConv2D", "input": ["PartitionedCall/model_3/tf.compat.v1.pad_3/Pad", "4967", "4969"], "device": "/device:CPU:0", "attr": {"strides": {"list": {"i": ["1", "2", "2", "1"]}}, "explicit_paddings": {"list": {}}, "num_host_args": {"i": "0"}, "num_args": {"i": "1"}, "epsilon": {"f": 0.0}, "T": {"type": "DT_FLOAT"}, "filter_format": {"s": "SFdJTw=="}, "leakyrelu_alpha": {"f": 0.2}, "dilations": {"list": {"i": ["1", "1", "1", "1"]}}, "use_cudnn_on_gpu": {"b": true}, "padding": {"s": "VkFMSUQ="}, "TArgs": {"list": {"type": ["DT_FLOAT"]}}, "data_format": {"s": "TkhXQw=="}, "fused_ops": {"list": {"s": ["Qmlhc0FkZA=="]}}}}, {"name": "PartitionedCall/model_3/tf.math.sigmoid_13/Sigmoid", "op": "Sigmoid", "input": ["PartitionedCall/model_3/tf.math.add_16/Add"], "attr": {"T": {"type": "DT_FLOAT"}}}, {"name": "PartitionedCall/model_3/tf.math.multiply_47/Mul", "op": "Mul", "input": ["PartitionedCall/model_3/tf.math.add_16/Add", "PartitionedCall/model_3/tf.math.sigmoid_13/Sigmoid"], "attr": {"T": {"type": "DT_FLOAT"}}}, {"name": "PartitionedCall/model_3/tf.math.add_17/Add", "op": "_FusedConv2D", "input": ["PartitionedCall/model_3/tf.math.multiply_47/Mul", "4971", "4973"], "device": "/device:CPU:0", "attr": {"explicit_paddings": {"list": {}}, "epsilon": {"f": 0.0}, "num_host_args": {"i": "0"}, "T": {"type": "DT_FLOAT"}, "filter_format": {"s": "SFdJTw=="}, "strides": {"list": {"i": ["1", "1", "1", "1"]}}, "leakyrelu_alpha": {"f": 0.2}, "use_cudnn_on_gpu": {"b": true}, "padding": {"s": "U0FNRQ=="}, "fused_ops": {"list": {"s": ["Qmlhc0FkZA=="]}}, "TArgs": {"list": {"type": ["DT_FLOAT"]}}, "data_format": {"s": "TkhXQw=="}, "dilations": {"list": {"i": ["1", "1", "1", "1"]}}, "num_args": {"i": "1"}}}, {"name": "PartitionedCall/model_3/tf.math.sigmoid_14/Sigmoid", "op": "Sigmoid", "input": ["PartitionedCall/model_3/tf.math.add_17/Add"], "attr": {"T": {"type": "DT_FLOAT"}}}, {"name": "PartitionedCall/model_3/tf.math.multiply_50/Mul", "op": "Mul", "input": ["PartitionedCall/model_3/tf.math.add_17/Add", "PartitionedCall/model_3/tf.math.sigmoid_14/Sigmoid"], "attr": {"T": {"type": "DT_FLOAT"}}}, {"name": "PartitionedCall/model_3/tf.strided_slice_4/StridedSlice", "op": "StridedSlice", "input": ["PartitionedCall/model_3/tf.math.multiply_50/Mul", "4995", "4997", "PartitionedCall/model_3/tf.strided_slice_4/ones_like"], "attr": {"new_axis_mask": {"i": "0"}, "end_mask": {"i": "7"}, "shrink_axis_mask": {"i": "0"}, "begin_mask": {"i": "15"}, "Index": {"type": "DT_INT64"}, "T": {"type": "DT_FLOAT"}, "ellipsis_mask": {"i": "0"}}}, {"name": "PartitionedCall/model_3/tf.strided_slice_5/StridedSlice", "op": "StridedSlice", "input": ["PartitionedCall/model_3/tf.math.multiply_50/Mul", "4975", "4977", "PartitionedCall/model_3/tf.strided_slice_5/ones_like"], "attr": {"Index": {"type": "DT_INT64"}, "shrink_axis_mask": {"i": "0"}, "end_mask": {"i": "7"}, "begin_mask": {"i": "7"}, "T": {"type": "DT_FLOAT"}, "ellipsis_mask": {"i": "0"}, "new_axis_mask": {"i": "0"}}}, {"name": "PartitionedCall/model_3/tf.math.add_18/Add", "op": "_FusedConv2D", "input": ["PartitionedCall/model_3/tf.strided_slice_5/StridedSlice", "4979", "4981"], "device": "/device:CPU:0", "attr": {"num_args": {"i": "1"}, "use_cudnn_on_gpu": {"b": true}, "T": {"type": "DT_FLOAT"}, "leakyrelu_alpha": {"f": 0.2}, "dilations": {"list": {"i": ["1", "1", "1", "1"]}}, "strides": {"list": {"i": ["1", "1", "1", "1"]}}, "filter_format": {"s": "SFdJTw=="}, "explicit_paddings": {"list": {}}, "TArgs": {"list": {"type": ["DT_FLOAT"]}}, "fused_ops": {"list": {"s": ["Qmlhc0FkZA=="]}}, "epsilon": {"f": 0.0}, "padding": {"s": "U0FNRQ=="}, "data_format": {"s": "TkhXQw=="}, "num_host_args": {"i": "0"}}}, {"name": "PartitionedCall/model_3/tf.math.sigmoid_15/Sigmoid", "op": "Sigmoid", "input": ["PartitionedCall/model_3/tf.math.add_18/Add"], "attr": {"T": {"type": "DT_FLOAT"}}}, {"name": "PartitionedCall/model_3/tf.math.multiply_53/Mul", "op": "Mul", "input": ["PartitionedCall/model_3/tf.math.add_18/Add", "PartitionedCall/model_3/tf.math.sigmoid_15/Sigmoid"], "attr": {"T": {"type": "DT_FLOAT"}}}, {"name": "PartitionedCall/model_3/tf.math.add_19/Add", "op": "_FusedConv2D", "input": ["PartitionedCall/model_3/tf.math.multiply_53/Mul", "4983", "4985"], "device": "/device:CPU:0", "attr": {"num_host_args": {"i": "0"}, "leakyrelu_alpha": {"f": 0.2}, "filter_format": {"s": "SFdJTw=="}, "epsilon": {"f": 0.0}, "data_format": {"s": "TkhXQw=="}, "use_cudnn_on_gpu": {"b": true}, "fused_ops": {"list": {"s": ["Qmlhc0FkZA=="]}}, "explicit_paddings": {"list": {}}, "num_args": {"i": "1"}, "dilations": {"list": {"i": ["1", "1", "1", "1"]}}, "strides": {"list": {"i": ["1", "1", "1", "1"]}}, "T": {"type": "DT_FLOAT"}, "TArgs": {"list": {"type": ["DT_FLOAT"]}}, "padding": {"s": "U0FNRQ=="}}}, {"name": "PartitionedCall/model_3/tf.math.sigmoid_16/Sigmoid", "op": "Sigmoid", "input": ["PartitionedCall/model_3/tf.math.add_19/Add"], "attr": {"T": {"type": "DT_FLOAT"}}}, {"name": "PartitionedCall/model_3/tf.math.multiply_56/Mul", "op": "Mul", "input": ["PartitionedCall/model_3/tf.math.add_19/Add", "PartitionedCall/model_3/tf.math.sigmoid_16/Sigmoid"], "attr": {"T": {"type": "DT_FLOAT"}}}, {"name": "PartitionedCall/model_3/tf.math.add_20/Add", "op": "AddV2", "input": ["PartitionedCall/model_3/tf.strided_slice_5/StridedSlice", "PartitionedCall/model_3/tf.math.multiply_56/Mul"], "attr": {"T": {"type": "DT_FLOAT"}}}, {"name": "PartitionedCall/model_3/tf.math.add_21/Add", "op": "_FusedConv2D", "input": ["PartitionedCall/model_3/tf.math.add_20/Add", "4987", "4989"], "device": "/device:CPU:0", "attr": {"num_host_args": {"i": "0"}, "use_cudnn_on_gpu": {"b": true}, "padding": {"s": "U0FNRQ=="}, "strides": {"list": {"i": ["1", "1", "1", "1"]}}, "explicit_paddings": {"list": {}}, "epsilon": {"f": 0.0}, "fused_ops": {"list": {"s": ["Qmlhc0FkZA=="]}}, "T": {"type": "DT_FLOAT"}, "TArgs": {"list": {"type": ["DT_FLOAT"]}}, "filter_format": {"s": "SFdJTw=="}, "dilations": {"list": {"i": ["1", "1", "1", "1"]}}, "num_args": {"i": "1"}, "data_format": {"s": "TkhXQw=="}, "leakyrelu_alpha": {"f": 0.2}}}, {"name": "PartitionedCall/model_3/tf.math.sigmoid_17/Sigmoid", "op": "Sigmoid", "input": ["PartitionedCall/model_3/tf.math.add_21/Add"], "attr": {"T": {"type": "DT_FLOAT"}}}, {"name": "PartitionedCall/model_3/tf.math.multiply_61/Mul", "op": "Mul", "input": ["PartitionedCall/model_3/tf.math.add_21/Add", "PartitionedCall/model_3/tf.math.sigmoid_17/Sigmoid"], "attr": {"T": {"type": "DT_FLOAT"}}}, {"name": "PartitionedCall/model_3/tf.math.add_22/Add", "op": "_FusedConv2D", "input": ["PartitionedCall/model_3/tf.math.multiply_61/Mul", "4991", "4993"], "device": "/device:CPU:0", "attr": {"strides": {"list": {"i": ["1", "1", "1", "1"]}}, "padding": {"s": "U0FNRQ=="}, "explicit_paddings": {"list": {}}, "T": {"type": "DT_FLOAT"}, "data_format": {"s": "TkhXQw=="}, "leakyrelu_alpha": {"f": 0.2}, "use_cudnn_on_gpu": {"b": true}, "epsilon": {"f": 0.0}, "fused_ops": {"list": {"s": ["Qmlhc0FkZA=="]}}, "num_host_args": {"i": "0"}, "TArgs": {"list": {"type": ["DT_FLOAT"]}}, "num_args": {"i": "1"}, "filter_format": {"s": "SFdJTw=="}, "dilations": {"list": {"i": ["1", "1", "1", "1"]}}}}, {"name": "PartitionedCall/model_3/tf.math.sigmoid_18/Sigmoid", "op": "Sigmoid", "input": ["PartitionedCall/model_3/tf.math.add_22/Add"], "attr": {"T": {"type": "DT_FLOAT"}}}, {"name": "PartitionedCall/model_3/tf.math.multiply_64/Mul", "op": "Mul", "input": ["PartitionedCall/model_3/tf.math.add_22/Add", "PartitionedCall/model_3/tf.math.sigmoid_18/Sigmoid"], "attr": {"T": {"type": "DT_FLOAT"}}}, {"name": "PartitionedCall/model_3/tf.math.add_23/Add", "op": "AddV2", "input": ["PartitionedCall/model_3/tf.math.add_20/Add", "PartitionedCall/model_3/tf.math.multiply_64/Mul"], "attr": {"T": {"type": "DT_FLOAT"}}}, {"name": "PartitionedCall/model_3/tf.concat_2/concat", "op": "ConcatV2", "input": ["PartitionedCall/model_3/tf.strided_slice_4/StridedSlice", "PartitionedCall/model_3/tf.strided_slice_5/StridedSlice", "PartitionedCall/model_3/tf.math.add_20/Add", "PartitionedCall/model_3/tf.math.add_23/Add", "PartitionedCall/model_3/tf.concat_2/concat/axis"], "attr": {"T": {"type": "DT_FLOAT"}, "Tidx": {"type": "DT_INT32"}, "N": {"i": "4"}}}, {"name": "PartitionedCall/model_3/tf.math.add_24/Add", "op": "_FusedConv2D", "input": ["PartitionedCall/model_3/tf.concat_2/concat", "4999", "5001"], "device": "/device:CPU:0", "attr": {"dilations": {"list": {"i": ["1", "1", "1", "1"]}}, "padding": {"s": "U0FNRQ=="}, "fused_ops": {"list": {"s": ["Qmlhc0FkZA=="]}}, "data_format": {"s": "TkhXQw=="}, "explicit_paddings": {"list": {}}, "num_args": {"i": "1"}, "use_cudnn_on_gpu": {"b": true}, "TArgs": {"list": {"type": ["DT_FLOAT"]}}, "filter_format": {"s": "SFdJTw=="}, "strides": {"list": {"i": ["1", "1", "1", "1"]}}, "leakyrelu_alpha": {"f": 0.2}, "num_host_args": {"i": "0"}, "T": {"type": "DT_FLOAT"}, "epsilon": {"f": 0.0}}}, {"name": "PartitionedCall/model_3/tf.math.sigmoid_19/Sigmoid", "op": "Sigmoid", "input": ["PartitionedCall/model_3/tf.math.add_24/Add"], "attr": {"T": {"type": "DT_FLOAT"}}}, {"name": "PartitionedCall/model_3/tf.math.multiply_69/Mul", "op": "Mul", "input": ["PartitionedCall/model_3/tf.math.add_24/Add", "PartitionedCall/model_3/tf.math.sigmoid_19/Sigmoid"], "attr": {"T": {"type": "DT_FLOAT"}}}, {"name": "PartitionedCall/model_3/tf.compat.v1.pad_4/Pad", "op": "Pad", "input": ["PartitionedCall/model_3/tf.math.multiply_69/Mul", "5003"], "attr": {"T": {"type": "DT_FLOAT"}, "Tpaddings": {"type": "DT_INT32"}}}, {"name": "PartitionedCall/model_3/tf.math.add_25/Add", "op": "_FusedConv2D", "input": ["PartitionedCall/model_3/tf.compat.v1.pad_4/Pad", "5005", "5007"], "device": "/device:CPU:0", "attr": {"epsilon": {"f": 0.0}, "num_host_args": {"i": "0"}, "data_format": {"s": "TkhXQw=="}, "TArgs": {"list": {"type": ["DT_FLOAT"]}}, "fused_ops": {"list": {"s": ["Qmlhc0FkZA=="]}}, "padding": {"s": "VkFMSUQ="}, "T": {"type": "DT_FLOAT"}, "num_args": {"i": "1"}, "filter_format": {"s": "SFdJTw=="}, "strides": {"list": {"i": ["1", "2", "2", "1"]}}, "leakyrelu_alpha": {"f": 0.2}, "explicit_paddings": {"list": {}}, "use_cudnn_on_gpu": {"b": true}, "dilations": {"list": {"i": ["1", "1", "1", "1"]}}}}, {"name": "PartitionedCall/model_3/tf.math.sigmoid_20/Sigmoid", "op": "Sigmoid", "input": ["PartitionedCall/model_3/tf.math.add_25/Add"], "attr": {"T": {"type": "DT_FLOAT"}}}, {"name": "PartitionedCall/model_3/tf.math.multiply_72/Mul", "op": "Mul", "input": ["PartitionedCall/model_3/tf.math.add_25/Add", "PartitionedCall/model_3/tf.math.sigmoid_20/Sigmoid"], "attr": {"T": {"type": "DT_FLOAT"}}}, {"name": "PartitionedCall/model_3/tf.math.add_26/Add", "op": "_FusedConv2D", "input": ["PartitionedCall/model_3/tf.math.multiply_72/Mul", "5009", "5011"], "device": "/device:CPU:0", "attr": {"filter_format": {"s": "SFdJTw=="}, "data_format": {"s": "TkhXQw=="}, "padding": {"s": "U0FNRQ=="}, "TArgs": {"list": {"type": ["DT_FLOAT"]}}, "T": {"type": "DT_FLOAT"}, "num_args": {"i": "1"}, "dilations": {"list": {"i": ["1", "1", "1", "1"]}}, "strides": {"list": {"i": ["1", "1", "1", "1"]}}, "leakyrelu_alpha": {"f": 0.2}, "use_cudnn_on_gpu": {"b": true}, "explicit_paddings": {"list": {}}, "num_host_args": {"i": "0"}, "epsilon": {"f": 0.0}, "fused_ops": {"list": {"s": ["Qmlhc0FkZA=="]}}}}, {"name": "PartitionedCall/model_3/tf.math.sigmoid_21/Sigmoid", "op": "Sigmoid", "input": ["PartitionedCall/model_3/tf.math.add_26/Add"], "attr": {"T": {"type": "DT_FLOAT"}}}, {"name": "PartitionedCall/model_3/tf.math.multiply_75/Mul", "op": "Mul", "input": ["PartitionedCall/model_3/tf.math.add_26/Add", "PartitionedCall/model_3/tf.math.sigmoid_21/Sigmoid"], "attr": {"T": {"type": "DT_FLOAT"}}}, {"name": "PartitionedCall/model_3/tf.strided_slice_6/StridedSlice", "op": "StridedSlice", "input": ["PartitionedCall/model_3/tf.math.multiply_75/Mul", "5025", "5027", "PartitionedCall/model_3/tf.strided_slice_6/ones_like"], "attr": {"begin_mask": {"i": "15"}, "Index": {"type": "DT_INT64"}, "end_mask": {"i": "7"}, "T": {"type": "DT_FLOAT"}, "new_axis_mask": {"i": "0"}, "ellipsis_mask": {"i": "0"}, "shrink_axis_mask": {"i": "0"}}}, {"name": "PartitionedCall/model_3/tf.strided_slice_7/StridedSlice", "op": "StridedSlice", "input": ["PartitionedCall/model_3/tf.math.multiply_75/Mul", "5013", "5015", "PartitionedCall/model_3/tf.strided_slice_7/ones_like"], "attr": {"end_mask": {"i": "7"}, "shrink_axis_mask": {"i": "0"}, "begin_mask": {"i": "7"}, "new_axis_mask": {"i": "0"}, "T": {"type": "DT_FLOAT"}, "Index": {"type": "DT_INT64"}, "ellipsis_mask": {"i": "0"}}}, {"name": "PartitionedCall/model_3/tf.math.add_27/Add", "op": "_FusedConv2D", "input": ["PartitionedCall/model_3/tf.strided_slice_7/StridedSlice", "5017", "5019"], "device": "/device:CPU:0", "attr": {"filter_format": {"s": "SFdJTw=="}, "use_cudnn_on_gpu": {"b": true}, "data_format": {"s": "TkhXQw=="}, "epsilon": {"f": 0.0}, "num_host_args": {"i": "0"}, "num_args": {"i": "1"}, "fused_ops": {"list": {"s": ["Qmlhc0FkZA=="]}}, "TArgs": {"list": {"type": ["DT_FLOAT"]}}, "T": {"type": "DT_FLOAT"}, "leakyrelu_alpha": {"f": 0.2}, "explicit_paddings": {"list": {}}, "dilations": {"list": {"i": ["1", "1", "1", "1"]}}, "padding": {"s": "U0FNRQ=="}, "strides": {"list": {"i": ["1", "1", "1", "1"]}}}}, {"name": "PartitionedCall/model_3/tf.math.sigmoid_22/Sigmoid", "op": "Sigmoid", "input": ["PartitionedCall/model_3/tf.math.add_27/Add"], "attr": {"T": {"type": "DT_FLOAT"}}}, {"name": "PartitionedCall/model_3/tf.math.multiply_78/Mul", "op": "Mul", "input": ["PartitionedCall/model_3/tf.math.add_27/Add", "PartitionedCall/model_3/tf.math.sigmoid_22/Sigmoid"], "attr": {"T": {"type": "DT_FLOAT"}}}, {"name": "PartitionedCall/model_3/tf.math.add_28/Add", "op": "_FusedConv2D", "input": ["PartitionedCall/model_3/tf.math.multiply_78/Mul", "5021", "5023"], "device": "/device:CPU:0", "attr": {"leakyrelu_alpha": {"f": 0.2}, "TArgs": {"list": {"type": ["DT_FLOAT"]}}, "use_cudnn_on_gpu": {"b": true}, "filter_format": {"s": "SFdJTw=="}, "epsilon": {"f": 0.0}, "num_host_args": {"i": "0"}, "strides": {"list": {"i": ["1", "1", "1", "1"]}}, "explicit_paddings": {"list": {}}, "T": {"type": "DT_FLOAT"}, "padding": {"s": "U0FNRQ=="}, "num_args": {"i": "1"}, "data_format": {"s": "TkhXQw=="}, "dilations": {"list": {"i": ["1", "1", "1", "1"]}}, "fused_ops": {"list": {"s": ["Qmlhc0FkZA=="]}}}}, {"name": "PartitionedCall/model_3/tf.math.sigmoid_23/Sigmoid", "op": "Sigmoid", "input": ["PartitionedCall/model_3/tf.math.add_28/Add"], "attr": {"T": {"type": "DT_FLOAT"}}}, {"name": "PartitionedCall/model_3/tf.math.multiply_81/Mul", "op": "Mul", "input": ["PartitionedCall/model_3/tf.math.add_28/Add", "PartitionedCall/model_3/tf.math.sigmoid_23/Sigmoid"], "attr": {"T": {"type": "DT_FLOAT"}}}, {"name": "PartitionedCall/model_3/tf.math.add_29/Add", "op": "AddV2", "input": ["PartitionedCall/model_3/tf.strided_slice_7/StridedSlice", "PartitionedCall/model_3/tf.math.multiply_81/Mul"], "attr": {"T": {"type": "DT_FLOAT"}}}, {"name": "PartitionedCall/model_3/tf.concat_3/concat", "op": "ConcatV2", "input": ["PartitionedCall/model_3/tf.strided_slice_6/StridedSlice", "PartitionedCall/model_3/tf.strided_slice_7/StridedSlice", "PartitionedCall/model_3/tf.math.add_29/Add", "PartitionedCall/model_3/tf.concat_3/concat/axis"], "attr": {"Tidx": {"type": "DT_INT32"}, "T": {"type": "DT_FLOAT"}, "N": {"i": "3"}}}, {"name": "PartitionedCall/model_3/tf.math.add_30/Add", "op": "_FusedConv2D", "input": ["PartitionedCall/model_3/tf.concat_3/concat", "5029", "5031"], "device": "/device:CPU:0", "attr": {"use_cudnn_on_gpu": {"b": true}, "leakyrelu_alpha": {"f": 0.2}, "dilations": {"list": {"i": ["1", "1", "1", "1"]}}, "T": {"type": "DT_FLOAT"}, "num_host_args": {"i": "0"}, "strides": {"list": {"i": ["1", "1", "1", "1"]}}, "padding": {"s": "U0FNRQ=="}, "num_args": {"i": "1"}, "data_format": {"s": "TkhXQw=="}, "filter_format": {"s": "SFdJTw=="}, "explicit_paddings": {"list": {}}, "fused_ops": {"list": {"s": ["Qmlhc0FkZA=="]}}, "TArgs": {"list": {"type": ["DT_FLOAT"]}}, "epsilon": {"f": 0.0}}}, {"name": "PartitionedCall/model_3/tf.math.sigmoid_24/Sigmoid", "op": "Sigmoid", "input": ["PartitionedCall/model_3/tf.math.add_30/Add"], "attr": {"T": {"type": "DT_FLOAT"}}}, {"name": "PartitionedCall/model_3/tf.math.multiply_86/Mul", "op": "Mul", "input": ["PartitionedCall/model_3/tf.math.add_30/Add", "PartitionedCall/model_3/tf.math.sigmoid_24/Sigmoid"], "attr": {"T": {"type": "DT_FLOAT"}}}, {"name": "PartitionedCall/model_3/tf.math.add_31/Add", "op": "_FusedConv2D", "input": ["PartitionedCall/model_3/tf.math.multiply_86/Mul", "5033", "5035"], "device": "/device:CPU:0", "attr": {"fused_ops": {"list": {"s": ["Qmlhc0FkZA=="]}}, "num_args": {"i": "1"}, "TArgs": {"list": {"type": ["DT_FLOAT"]}}, "strides": {"list": {"i": ["1", "1", "1", "1"]}}, "T": {"type": "DT_FLOAT"}, "data_format": {"s": "TkhXQw=="}, "use_cudnn_on_gpu": {"b": true}, "padding": {"s": "U0FNRQ=="}, "filter_format": {"s": "SFdJTw=="}, "num_host_args": {"i": "0"}, "leakyrelu_alpha": {"f": 0.2}, "dilations": {"list": {"i": ["1", "1", "1", "1"]}}, "explicit_paddings": {"list": {}}, "epsilon": {"f": 0.0}}}, {"name": "PartitionedCall/model_3/tf.math.sigmoid_25/Sigmoid", "op": "Sigmoid", "input": ["PartitionedCall/model_3/tf.math.add_31/Add"], "attr": {"T": {"type": "DT_FLOAT"}}}, {"name": "PartitionedCall/model_3/tf.math.multiply_89/Mul", "op": "Mul", "input": ["PartitionedCall/model_3/tf.math.add_31/Add", "PartitionedCall/model_3/tf.math.sigmoid_25/Sigmoid"], "attr": {"T": {"type": "DT_FLOAT"}}}, {"name": "PartitionedCall/model_3/tf.compat.v1.nn.pool/max_pool", "op": "MaxPool", "input": ["PartitionedCall/model_3/tf.math.multiply_89/Mul"], "attr": {"ksize": {"list": {"i": ["1", "5", "5", "1"]}}, "data_format": {"s": "TkhXQw=="}, "padding": {"s": "U0FNRQ=="}, "strides": {"list": {"i": ["1", "1", "1", "1"]}}, "T": {"type": "DT_FLOAT"}, "explicit_paddings": {"list": {}}}}, {"name": "PartitionedCall/model_3/tf.compat.v1.nn.pool_1/max_pool", "op": "MaxPool", "input": ["PartitionedCall/model_3/tf.compat.v1.nn.pool/max_pool"], "attr": {"padding": {"s": "U0FNRQ=="}, "strides": {"list": {"i": ["1", "1", "1", "1"]}}, "explicit_paddings": {"list": {}}, "T": {"type": "DT_FLOAT"}, "data_format": {"s": "TkhXQw=="}, "ksize": {"list": {"i": ["1", "5", "5", "1"]}}}}, {"name": "PartitionedCall/model_3/tf.compat.v1.nn.pool_2/max_pool", "op": "MaxPool", "input": ["PartitionedCall/model_3/tf.compat.v1.nn.pool_1/max_pool"], "attr": {"data_format": {"s": "TkhXQw=="}, "strides": {"list": {"i": ["1", "1", "1", "1"]}}, "explicit_paddings": {"list": {}}, "ksize": {"list": {"i": ["1", "5", "5", "1"]}}, "padding": {"s": "U0FNRQ=="}, "T": {"type": "DT_FLOAT"}}}, {"name": "PartitionedCall/model_3/tf.concat_4/concat", "op": "ConcatV2", "input": ["PartitionedCall/model_3/tf.math.multiply_89/Mul", "PartitionedCall/model_3/tf.compat.v1.nn.pool/max_pool", "PartitionedCall/model_3/tf.compat.v1.nn.pool_1/max_pool", "PartitionedCall/model_3/tf.compat.v1.nn.pool_2/max_pool", "PartitionedCall/model_3/tf.concat_4/concat/axis"], "attr": {"Tidx": {"type": "DT_INT32"}, "T": {"type": "DT_FLOAT"}, "N": {"i": "4"}}}, {"name": "PartitionedCall/model_3/tf.math.add_32/Add", "op": "_FusedConv2D", "input": ["PartitionedCall/model_3/tf.concat_4/concat", "5037", "5039"], "device": "/device:CPU:0", "attr": {"leakyrelu_alpha": {"f": 0.2}, "num_args": {"i": "1"}, "num_host_args": {"i": "0"}, "dilations": {"list": {"i": ["1", "1", "1", "1"]}}, "TArgs": {"list": {"type": ["DT_FLOAT"]}}, "epsilon": {"f": 0.0}, "filter_format": {"s": "SFdJTw=="}, "T": {"type": "DT_FLOAT"}, "padding": {"s": "U0FNRQ=="}, "data_format": {"s": "TkhXQw=="}, "explicit_paddings": {"list": {}}, "use_cudnn_on_gpu": {"b": true}, "strides": {"list": {"i": ["1", "1", "1", "1"]}}, "fused_ops": {"list": {"s": ["Qmlhc0FkZA=="]}}}}, {"name": "PartitionedCall/model_3/tf.math.sigmoid_26/Sigmoid", "op": "Sigmoid", "input": ["PartitionedCall/model_3/tf.math.add_32/Add"], "attr": {"T": {"type": "DT_FLOAT"}}}, {"name": "PartitionedCall/model_3/tf.math.multiply_92/Mul", "op": "Mul", "input": ["PartitionedCall/model_3/tf.math.add_32/Add", "PartitionedCall/model_3/tf.math.sigmoid_26/Sigmoid"], "attr": {"T": {"type": "DT_FLOAT"}}}, {"name": "PartitionedCall/model_3/lambda//model.10/Resize", "op": "ResizeNearestNeighbor", "input": ["PartitionedCall/model_3/tf.math.multiply_92/Mul", "PartitionedCall/model_3/lambda//model.10/Resize/size"], "attr": {"T": {"type": "DT_FLOAT"}, "half_pixel_centers": {"b": false}, "align_corners": {"b": false}}}, {"name": "PartitionedCall/model_3/tf.concat_5/concat", "op": "ConcatV2", "input": ["PartitionedCall/model_3/lambda//model.10/Resize", "PartitionedCall/model_3/tf.math.multiply_69/Mul", "PartitionedCall/model_3/tf.concat_5/concat/axis"], "attr": {"Tidx": {"type": "DT_INT32"}, "N": {"i": "2"}, "T": {"type": "DT_FLOAT"}}}, {"name": "PartitionedCall/model_3/tf.math.add_33/Add", "op": "_FusedConv2D", "input": ["PartitionedCall/model_3/tf.concat_5/concat", "5041", "5043"], "device": "/device:CPU:0", "attr": {"num_args": {"i": "1"}, "leakyrelu_alpha": {"f": 0.2}, "epsilon": {"f": 0.0}, "strides": {"list": {"i": ["1", "1", "1", "1"]}}, "data_format": {"s": "TkhXQw=="}, "fused_ops": {"list": {"s": ["Qmlhc0FkZA=="]}}, "use_cudnn_on_gpu": {"b": true}, "filter_format": {"s": "SFdJTw=="}, "explicit_paddings": {"list": {}}, "T": {"type": "DT_FLOAT"}, "dilations": {"list": {"i": ["1", "1", "1", "1"]}}, "num_host_args": {"i": "0"}, "TArgs": {"list": {"type": ["DT_FLOAT"]}}, "padding": {"s": "U0FNRQ=="}}}, {"name": "PartitionedCall/model_3/tf.math.sigmoid_27/Sigmoid", "op": "Sigmoid", "input": ["PartitionedCall/model_3/tf.math.add_33/Add"], "attr": {"T": {"type": "DT_FLOAT"}}}, {"name": "PartitionedCall/model_3/tf.math.multiply_95/Mul", "op": "Mul", "input": ["PartitionedCall/model_3/tf.math.add_33/Add", "PartitionedCall/model_3/tf.math.sigmoid_27/Sigmoid"], "attr": {"T": {"type": "DT_FLOAT"}}}, {"name": "PartitionedCall/model_3/tf.strided_slice_8/StridedSlice", "op": "StridedSlice", "input": ["PartitionedCall/model_3/tf.math.multiply_95/Mul", "5057", "5059", "PartitionedCall/model_3/tf.strided_slice_8/ones_like"], "attr": {"shrink_axis_mask": {"i": "0"}, "T": {"type": "DT_FLOAT"}, "Index": {"type": "DT_INT64"}, "end_mask": {"i": "7"}, "begin_mask": {"i": "15"}, "new_axis_mask": {"i": "0"}, "ellipsis_mask": {"i": "0"}}}, {"name": "PartitionedCall/model_3/tf.strided_slice_9/StridedSlice", "op": "StridedSlice", "input": ["PartitionedCall/model_3/tf.math.multiply_95/Mul", "5045", "5047", "PartitionedCall/model_3/tf.strided_slice_9/ones_like"], "attr": {"new_axis_mask": {"i": "0"}, "ellipsis_mask": {"i": "0"}, "Index": {"type": "DT_INT64"}, "begin_mask": {"i": "7"}, "T": {"type": "DT_FLOAT"}, "end_mask": {"i": "7"}, "shrink_axis_mask": {"i": "0"}}}, {"name": "PartitionedCall/model_3/tf.math.add_34/Add", "op": "_FusedConv2D", "input": ["PartitionedCall/model_3/tf.strided_slice_9/StridedSlice", "5049", "5051"], "device": "/device:CPU:0", "attr": {"strides": {"list": {"i": ["1", "1", "1", "1"]}}, "epsilon": {"f": 0.0}, "fused_ops": {"list": {"s": ["Qmlhc0FkZA=="]}}, "explicit_paddings": {"list": {}}, "num_args": {"i": "1"}, "dilations": {"list": {"i": ["1", "1", "1", "1"]}}, "TArgs": {"list": {"type": ["DT_FLOAT"]}}, "padding": {"s": "U0FNRQ=="}, "filter_format": {"s": "SFdJTw=="}, "use_cudnn_on_gpu": {"b": true}, "T": {"type": "DT_FLOAT"}, "num_host_args": {"i": "0"}, "leakyrelu_alpha": {"f": 0.2}, "data_format": {"s": "TkhXQw=="}}}, {"name": "PartitionedCall/model_3/tf.math.sigmoid_28/Sigmoid", "op": "Sigmoid", "input": ["PartitionedCall/model_3/tf.math.add_34/Add"], "attr": {"T": {"type": "DT_FLOAT"}}}, {"name": "PartitionedCall/model_3/tf.math.multiply_98/Mul", "op": "Mul", "input": ["PartitionedCall/model_3/tf.math.add_34/Add", "PartitionedCall/model_3/tf.math.sigmoid_28/Sigmoid"], "attr": {"T": {"type": "DT_FLOAT"}}}, {"name": "PartitionedCall/model_3/tf.math.add_35/Add", "op": "_FusedConv2D", "input": ["PartitionedCall/model_3/tf.math.multiply_98/Mul", "5053", "5055"], "device": "/device:CPU:0", "attr": {"explicit_paddings": {"list": {}}, "TArgs": {"list": {"type": ["DT_FLOAT"]}}, "fused_ops": {"list": {"s": ["Qmlhc0FkZA=="]}}, "leakyrelu_alpha": {"f": 0.2}, "num_args": {"i": "1"}, "data_format": {"s": "TkhXQw=="}, "padding": {"s": "U0FNRQ=="}, "T": {"type": "DT_FLOAT"}, "use_cudnn_on_gpu": {"b": true}, "dilations": {"list": {"i": ["1", "1", "1", "1"]}}, "strides": {"list": {"i": ["1", "1", "1", "1"]}}, "epsilon": {"f": 0.0}, "num_host_args": {"i": "0"}, "filter_format": {"s": "SFdJTw=="}}}, {"name": "PartitionedCall/model_3/tf.math.sigmoid_29/Sigmoid", "op": "Sigmoid", "input": ["PartitionedCall/model_3/tf.math.add_35/Add"], "attr": {"T": {"type": "DT_FLOAT"}}}, {"name": "PartitionedCall/model_3/tf.math.multiply_101/Mul", "op": "Mul", "input": ["PartitionedCall/model_3/tf.math.add_35/Add", "PartitionedCall/model_3/tf.math.sigmoid_29/Sigmoid"], "attr": {"T": {"type": "DT_FLOAT"}}}, {"name": "PartitionedCall/model_3/tf.concat_6/concat", "op": "ConcatV2", "input": ["PartitionedCall/model_3/tf.strided_slice_8/StridedSlice", "PartitionedCall/model_3/tf.strided_slice_9/StridedSlice", "PartitionedCall/model_3/tf.math.multiply_101/Mul", "PartitionedCall/model_3/tf.concat_6/concat/axis"], "attr": {"N": {"i": "3"}, "T": {"type": "DT_FLOAT"}, "Tidx": {"type": "DT_INT32"}}}, {"name": "PartitionedCall/model_3/tf.math.add_36/Add", "op": "_FusedConv2D", "input": ["PartitionedCall/model_3/tf.concat_6/concat", "5061", "5063"], "device": "/device:CPU:0", "attr": {"epsilon": {"f": 0.0}, "dilations": {"list": {"i": ["1", "1", "1", "1"]}}, "leakyrelu_alpha": {"f": 0.2}, "fused_ops": {"list": {"s": ["Qmlhc0FkZA=="]}}, "explicit_paddings": {"list": {}}, "data_format": {"s": "TkhXQw=="}, "num_args": {"i": "1"}, "use_cudnn_on_gpu": {"b": true}, "strides": {"list": {"i": ["1", "1", "1", "1"]}}, "T": {"type": "DT_FLOAT"}, "padding": {"s": "U0FNRQ=="}, "TArgs": {"list": {"type": ["DT_FLOAT"]}}, "filter_format": {"s": "SFdJTw=="}, "num_host_args": {"i": "0"}}}, {"name": "PartitionedCall/model_3/tf.math.sigmoid_30/Sigmoid", "op": "Sigmoid", "input": ["PartitionedCall/model_3/tf.math.add_36/Add"], "attr": {"T": {"type": "DT_FLOAT"}}}, {"name": "PartitionedCall/model_3/tf.math.multiply_104/Mul", "op": "Mul", "input": ["PartitionedCall/model_3/tf.math.add_36/Add", "PartitionedCall/model_3/tf.math.sigmoid_30/Sigmoid"], "attr": {"T": {"type": "DT_FLOAT"}}}, {"name": "PartitionedCall/model_3/lambda_1//model.13/Resize", "op": "ResizeNearestNeighbor", "input": ["PartitionedCall/model_3/tf.math.multiply_104/Mul", "PartitionedCall/model_3/lambda_1//model.13/Resize/size"], "attr": {"half_pixel_centers": {"b": false}, "align_corners": {"b": false}, "T": {"type": "DT_FLOAT"}}}, {"name": "PartitionedCall/model_3/tf.concat_7/concat", "op": "ConcatV2", "input": ["PartitionedCall/model_3/lambda_1//model.13/Resize", "PartitionedCall/model_3/tf.math.multiply_44/Mul", "PartitionedCall/model_3/tf.concat_7/concat/axis"], "attr": {"T": {"type": "DT_FLOAT"}, "Tidx": {"type": "DT_INT32"}, "N": {"i": "2"}}}, {"name": "PartitionedCall/model_3/tf.math.add_37/Add", "op": "_FusedConv2D", "input": ["PartitionedCall/model_3/tf.concat_7/concat", "5065", "5067"], "device": "/device:CPU:0", "attr": {"num_host_args": {"i": "0"}, "use_cudnn_on_gpu": {"b": true}, "filter_format": {"s": "SFdJTw=="}, "explicit_paddings": {"list": {}}, "epsilon": {"f": 0.0}, "T": {"type": "DT_FLOAT"}, "dilations": {"list": {"i": ["1", "1", "1", "1"]}}, "TArgs": {"list": {"type": ["DT_FLOAT"]}}, "strides": {"list": {"i": ["1", "1", "1", "1"]}}, "num_args": {"i": "1"}, "leakyrelu_alpha": {"f": 0.2}, "data_format": {"s": "TkhXQw=="}, "fused_ops": {"list": {"s": ["Qmlhc0FkZA=="]}}, "padding": {"s": "U0FNRQ=="}}}, {"name": "PartitionedCall/model_3/tf.math.sigmoid_31/Sigmoid", "op": "Sigmoid", "input": ["PartitionedCall/model_3/tf.math.add_37/Add"], "attr": {"T": {"type": "DT_FLOAT"}}}, {"name": "PartitionedCall/model_3/tf.math.multiply_107/Mul", "op": "Mul", "input": ["PartitionedCall/model_3/tf.math.add_37/Add", "PartitionedCall/model_3/tf.math.sigmoid_31/Sigmoid"], "attr": {"T": {"type": "DT_FLOAT"}}}, {"name": "PartitionedCall/model_3/tf.strided_slice_10/StridedSlice", "op": "StridedSlice", "input": ["PartitionedCall/model_3/tf.math.multiply_107/Mul", "5081", "5083", "PartitionedCall/model_3/tf.strided_slice_10/ones_like"], "attr": {"shrink_axis_mask": {"i": "0"}, "Index": {"type": "DT_INT64"}, "new_axis_mask": {"i": "0"}, "begin_mask": {"i": "15"}, "T": {"type": "DT_FLOAT"}, "ellipsis_mask": {"i": "0"}, "end_mask": {"i": "7"}}}, {"name": "PartitionedCall/model_3/tf.strided_slice_11/StridedSlice", "op": "StridedSlice", "input": ["PartitionedCall/model_3/tf.math.multiply_107/Mul", "5069", "5071", "PartitionedCall/model_3/tf.strided_slice_11/ones_like"], "attr": {"Index": {"type": "DT_INT64"}, "shrink_axis_mask": {"i": "0"}, "new_axis_mask": {"i": "0"}, "ellipsis_mask": {"i": "0"}, "end_mask": {"i": "7"}, "begin_mask": {"i": "7"}, "T": {"type": "DT_FLOAT"}}}, {"name": "PartitionedCall/model_3/tf.math.add_38/Add", "op": "_FusedConv2D", "input": ["PartitionedCall/model_3/tf.strided_slice_11/StridedSlice", "5073", "5075"], "device": "/device:CPU:0", "attr": {"T": {"type": "DT_FLOAT"}, "dilations": {"list": {"i": ["1", "1", "1", "1"]}}, "use_cudnn_on_gpu": {"b": true}, "filter_format": {"s": "SFdJTw=="}, "strides": {"list": {"i": ["1", "1", "1", "1"]}}, "fused_ops": {"list": {"s": ["Qmlhc0FkZA=="]}}, "TArgs": {"list": {"type": ["DT_FLOAT"]}}, "data_format": {"s": "TkhXQw=="}, "num_args": {"i": "1"}, "explicit_paddings": {"list": {}}, "leakyrelu_alpha": {"f": 0.2}, "num_host_args": {"i": "0"}, "padding": {"s": "U0FNRQ=="}, "epsilon": {"f": 0.0}}}, {"name": "PartitionedCall/model_3/tf.math.sigmoid_32/Sigmoid", "op": "Sigmoid", "input": ["PartitionedCall/model_3/tf.math.add_38/Add"], "attr": {"T": {"type": "DT_FLOAT"}}}, {"name": "PartitionedCall/model_3/tf.math.multiply_110/Mul", "op": "Mul", "input": ["PartitionedCall/model_3/tf.math.add_38/Add", "PartitionedCall/model_3/tf.math.sigmoid_32/Sigmoid"], "attr": {"T": {"type": "DT_FLOAT"}}}, {"name": "PartitionedCall/model_3/tf.math.add_39/Add", "op": "_FusedConv2D", "input": ["PartitionedCall/model_3/tf.math.multiply_110/Mul", "5077", "5079"], "device": "/device:CPU:0", "attr": {"explicit_paddings": {"list": {}}, "strides": {"list": {"i": ["1", "1", "1", "1"]}}, "padding": {"s": "U0FNRQ=="}, "leakyrelu_alpha": {"f": 0.2}, "data_format": {"s": "TkhXQw=="}, "TArgs": {"list": {"type": ["DT_FLOAT"]}}, "T": {"type": "DT_FLOAT"}, "filter_format": {"s": "SFdJTw=="}, "num_args": {"i": "1"}, "fused_ops": {"list": {"s": ["Qmlhc0FkZA=="]}}, "epsilon": {"f": 0.0}, "use_cudnn_on_gpu": {"b": true}, "dilations": {"list": {"i": ["1", "1", "1", "1"]}}, "num_host_args": {"i": "0"}}}, {"name": "PartitionedCall/model_3/tf.math.sigmoid_33/Sigmoid", "op": "Sigmoid", "input": ["PartitionedCall/model_3/tf.math.add_39/Add"], "attr": {"T": {"type": "DT_FLOAT"}}}, {"name": "PartitionedCall/model_3/tf.math.multiply_113/Mul", "op": "Mul", "input": ["PartitionedCall/model_3/tf.math.add_39/Add", "PartitionedCall/model_3/tf.math.sigmoid_33/Sigmoid"], "attr": {"T": {"type": "DT_FLOAT"}}}, {"name": "PartitionedCall/model_3/tf.concat_8/concat", "op": "ConcatV2", "input": ["PartitionedCall/model_3/tf.strided_slice_10/StridedSlice", "PartitionedCall/model_3/tf.strided_slice_11/StridedSlice", "PartitionedCall/model_3/tf.math.multiply_113/Mul", "PartitionedCall/model_3/tf.concat_8/concat/axis"], "attr": {"N": {"i": "3"}, "T": {"type": "DT_FLOAT"}, "Tidx": {"type": "DT_INT32"}}}, {"name": "PartitionedCall/model_3/tf.math.add_40/Add", "op": "_FusedConv2D", "input": ["PartitionedCall/model_3/tf.concat_8/concat", "5085", "5087"], "device": "/device:CPU:0", "attr": {"num_host_args": {"i": "0"}, "leakyrelu_alpha": {"f": 0.2}, "dilations": {"list": {"i": ["1", "1", "1", "1"]}}, "explicit_paddings": {"list": {}}, "filter_format": {"s": "SFdJTw=="}, "fused_ops": {"list": {"s": ["Qmlhc0FkZA=="]}}, "TArgs": {"list": {"type": ["DT_FLOAT"]}}, "padding": {"s": "U0FNRQ=="}, "strides": {"list": {"i": ["1", "1", "1", "1"]}}, "epsilon": {"f": 0.0}, "data_format": {"s": "TkhXQw=="}, "use_cudnn_on_gpu": {"b": true}, "T": {"type": "DT_FLOAT"}, "num_args": {"i": "1"}}}, {"name": "PartitionedCall/model_3/tf.math.sigmoid_34/Sigmoid", "op": "Sigmoid", "input": ["PartitionedCall/model_3/tf.math.add_40/Add"], "attr": {"T": {"type": "DT_FLOAT"}}}, {"name": "PartitionedCall/model_3/tf.math.multiply_116/Mul", "op": "Mul", "input": ["PartitionedCall/model_3/tf.math.add_40/Add", "PartitionedCall/model_3/tf.math.sigmoid_34/Sigmoid"], "attr": {"T": {"type": "DT_FLOAT"}}}, {"name": "PartitionedCall/model_3/tf.math.add_42/Add", "op": "_FusedConv2D", "input": ["PartitionedCall/model_3/tf.math.multiply_116/Mul", "5153", "5163"], "device": "/device:CPU:0", "attr": {"num_host_args": {"i": "0"}, "data_format": {"s": "TkhXQw=="}, "use_cudnn_on_gpu": {"b": true}, "filter_format": {"s": "SFdJTw=="}, "num_args": {"i": "1"}, "padding": {"s": "U0FNRQ=="}, "dilations": {"list": {"i": ["1", "1", "1", "1"]}}, "epsilon": {"f": 0.0}, "explicit_paddings": {"list": {}}, "TArgs": {"list": {"type": ["DT_FLOAT"]}}, "strides": {"list": {"i": ["1", "1", "1", "1"]}}, "T": {"type": "DT_FLOAT"}, "fused_ops": {"list": {"s": ["Qmlhc0FkZA=="]}}, "leakyrelu_alpha": {"f": 0.2}}}, {"name": "PartitionedCall/model_3/tf.math.add_43/Add", "op": "_FusedConv2D", "input": ["PartitionedCall/model_3/tf.math.multiply_116/Mul", "5149", "5151"], "device": "/device:CPU:0", "attr": {"num_host_args": {"i": "0"}, "padding": {"s": "U0FNRQ=="}, "data_format": {"s": "TkhXQw=="}, "T": {"type": "DT_FLOAT"}, "strides": {"list": {"i": ["1", "1", "1", "1"]}}, "dilations": {"list": {"i": ["1", "1", "1", "1"]}}, "fused_ops": {"list": {"s": ["Qmlhc0FkZA=="]}}, "leakyrelu_alpha": {"f": 0.2}, "TArgs": {"list": {"type": ["DT_FLOAT"]}}, "epsilon": {"f": 0.0}, "use_cudnn_on_gpu": {"b": true}, "filter_format": {"s": "SFdJTw=="}, "explicit_paddings": {"list": {}}, "num_args": {"i": "1"}}}, {"name": "PartitionedCall/model_3/tf.compat.v1.pad_5/Pad", "op": "Pad", "input": ["PartitionedCall/model_3/tf.math.multiply_116/Mul", "5089"], "attr": {"T": {"type": "DT_FLOAT"}, "Tpaddings": {"type": "DT_INT32"}}}, {"name": "PartitionedCall/model_3/tf.math.sigmoid_36/Sigmoid", "op": "Sigmoid", "input": ["PartitionedCall/model_3/tf.math.add_42/Add"], "attr": {"T": {"type": "DT_FLOAT"}}}, {"name": "PartitionedCall/model_3/tf.math.sigmoid_37/Sigmoid", "op": "Sigmoid", "input": ["PartitionedCall/model_3/tf.math.add_43/Add"], "attr": {"T": {"type": "DT_FLOAT"}}}, {"name": "PartitionedCall/model_3/tf.math.add_41/Add", "op": "_FusedConv2D", "input": ["PartitionedCall/model_3/tf.compat.v1.pad_5/Pad", "5091", "5093"], "device": "/device:CPU:0", "attr": {"strides": {"list": {"i": ["1", "2", "2", "1"]}}, "leakyrelu_alpha": {"f": 0.2}, "num_args": {"i": "1"}, "T": {"type": "DT_FLOAT"}, "epsilon": {"f": 0.0}, "padding": {"s": "VkFMSUQ="}, "num_host_args": {"i": "0"}, "dilations": {"list": {"i": ["1", "1", "1", "1"]}}, "use_cudnn_on_gpu": {"b": true}, "filter_format": {"s": "SFdJTw=="}, "TArgs": {"list": {"type": ["DT_FLOAT"]}}, "data_format": {"s": "TkhXQw=="}, "explicit_paddings": {"list": {}}, "fused_ops": {"list": {"s": ["Qmlhc0FkZA=="]}}}}, {"name": "PartitionedCall/model_3/tf.math.multiply_122/Mul", "op": "Mul", "input": ["PartitionedCall/model_3/tf.math.add_42/Add", "PartitionedCall/model_3/tf.math.sigmoid_36/Sigmoid"], "attr": {"T": {"type": "DT_FLOAT"}}}, {"name": "PartitionedCall/model_3/tf.math.multiply_125/Mul", "op": "Mul", "input": ["PartitionedCall/model_3/tf.math.add_43/Add", "PartitionedCall/model_3/tf.math.sigmoid_37/Sigmoid"], "attr": {"T": {"type": "DT_FLOAT"}}}, {"name": "PartitionedCall/model_3/tf.math.sigmoid_35/Sigmoid", "op": "Sigmoid", "input": ["PartitionedCall/model_3/tf.math.add_41/Add"], "attr": {"T": {"type": "DT_FLOAT"}}}, {"name": "PartitionedCall/model_3/tf.math.add_44/Add", "op": "_FusedConv2D", "input": ["PartitionedCall/model_3/tf.math.multiply_122/Mul", "5177", "5187"], "device": "/device:CPU:0", "attr": {"strides": {"list": {"i": ["1", "1", "1", "1"]}}, "fused_ops": {"list": {"s": ["Qmlhc0FkZA=="]}}, "use_cudnn_on_gpu": {"b": true}, "num_host_args": {"i": "0"}, "TArgs": {"list": {"type": ["DT_FLOAT"]}}, "data_format": {"s": "TkhXQw=="}, "filter_format": {"s": "SFdJTw=="}, "explicit_paddings": {"list": {}}, "T": {"type": "DT_FLOAT"}, "dilations": {"list": {"i": ["1", "1", "1", "1"]}}, "padding": {"s": "U0FNRQ=="}, "num_args": {"i": "1"}, "leakyrelu_alpha": {"f": 0.2}, "epsilon": {"f": 0.0}}}, {"name": "PartitionedCall/model_3/tf.math.add_46/Add", "op": "_FusedConv2D", "input": ["PartitionedCall/model_3/tf.math.multiply_125/Mul", "5173", "5175"], "device": "/device:CPU:0", "attr": {"fused_ops": {"list": {"s": ["Qmlhc0FkZA=="]}}, "epsilon": {"f": 0.0}, "strides": {"list": {"i": ["1", "1", "1", "1"]}}, "explicit_paddings": {"list": {}}, "TArgs": {"list": {"type": ["DT_FLOAT"]}}, "num_args": {"i": "1"}, "dilations": {"list": {"i": ["1", "1", "1", "1"]}}, "filter_format": {"s": "SFdJTw=="}, "data_format": {"s": "TkhXQw=="}, "padding": {"s": "U0FNRQ=="}, "num_host_args": {"i": "0"}, "leakyrelu_alpha": {"f": 0.2}, "use_cudnn_on_gpu": {"b": true}, "T": {"type": "DT_FLOAT"}}}, {"name": "PartitionedCall/model_3/tf.math.multiply_119/Mul", "op": "Mul", "input": ["PartitionedCall/model_3/tf.math.add_41/Add", "PartitionedCall/model_3/tf.math.sigmoid_35/Sigmoid"], "attr": {"T": {"type": "DT_FLOAT"}}}, {"name": "PartitionedCall/model_3/tf.math.sigmoid_38/Sigmoid", "op": "Sigmoid", "input": ["PartitionedCall/model_3/tf.math.add_44/Add"], "attr": {"T": {"type": "DT_FLOAT"}}}, {"name": "PartitionedCall/model_3/tf.math.sigmoid_39/Sigmoid", "op": "Sigmoid", "input": ["PartitionedCall/model_3/tf.math.add_46/Add"], "attr": {"T": {"type": "DT_FLOAT"}}}, {"name": "PartitionedCall/model_3/tf.concat_9/concat", "op": "ConcatV2", "input": ["PartitionedCall/model_3/tf.math.multiply_119/Mul", "PartitionedCall/model_3/tf.math.multiply_104/Mul", "PartitionedCall/model_3/tf.concat_9/concat/axis"], "attr": {"Tidx": {"type": "DT_INT32"}, "T": {"type": "DT_FLOAT"}, "N": {"i": "2"}}}, {"name": "PartitionedCall/model_3/tf.math.multiply_128/Mul", "op": "Mul", "input": ["PartitionedCall/model_3/tf.math.add_44/Add", "PartitionedCall/model_3/tf.math.sigmoid_38/Sigmoid"], "attr": {"T": {"type": "DT_FLOAT"}}}, {"name": "PartitionedCall/model_3/tf.math.multiply_131/Mul", "op": "Mul", "input": ["PartitionedCall/model_3/tf.math.add_46/Add", "PartitionedCall/model_3/tf.math.sigmoid_39/Sigmoid"], "attr": {"T": {"type": "DT_FLOAT"}}}, {"name": "PartitionedCall/model_3/tf.math.add_47/Add", "op": "_FusedConv2D", "input": ["PartitionedCall/model_3/tf.concat_9/concat", "5095", "5097"], "device": "/device:CPU:0", "attr": {"strides": {"list": {"i": ["1", "1", "1", "1"]}}, "dilations": {"list": {"i": ["1", "1", "1", "1"]}}, "T": {"type": "DT_FLOAT"}, "explicit_paddings": {"list": {}}, "filter_format": {"s": "SFdJTw=="}, "TArgs": {"list": {"type": ["DT_FLOAT"]}}, "epsilon": {"f": 0.0}, "use_cudnn_on_gpu": {"b": true}, "num_host_args": {"i": "0"}, "data_format": {"s": "TkhXQw=="}, "num_args": {"i": "1"}, "padding": {"s": "U0FNRQ=="}, "fused_ops": {"list": {"s": ["Qmlhc0FkZA=="]}}, "leakyrelu_alpha": {"f": 0.2}}}, {"name": "PartitionedCall/model_3/tf.math.add_48/Add", "op": "_FusedConv2D", "input": ["PartitionedCall/model_3/tf.math.multiply_128/Mul", "5199", "5211"], "device": "/device:CPU:0", "attr": {"padding": {"s": "U0FNRQ=="}, "TArgs": {"list": {"type": ["DT_FLOAT"]}}, "filter_format": {"s": "SFdJTw=="}, "data_format": {"s": "TkhXQw=="}, "num_host_args": {"i": "0"}, "use_cudnn_on_gpu": {"b": true}, "num_args": {"i": "1"}, "T": {"type": "DT_FLOAT"}, "epsilon": {"f": 0.0}, "dilations": {"list": {"i": ["1", "1", "1", "1"]}}, "leakyrelu_alpha": {"f": 0.2}, "explicit_paddings": {"list": {}}, "fused_ops": {"list": {"s": ["Qmlhc0FkZA=="]}}, "strides": {"list": {"i": ["1", "1", "1", "1"]}}}}, {"name": "PartitionedCall/model_3/tf.math.add_50/Add", "op": "_FusedConv2D", "input": ["PartitionedCall/model_3/tf.math.multiply_131/Mul", "5197", "5209"], "device": "/device:CPU:0", "attr": {"explicit_paddings": {"list": {}}, "filter_format": {"s": "SFdJTw=="}, "strides": {"list": {"i": ["1", "1", "1", "1"]}}, "data_format": {"s": "TkhXQw=="}, "padding": {"s": "U0FNRQ=="}, "num_args": {"i": "1"}, "num_host_args": {"i": "0"}, "T": {"type": "DT_FLOAT"}, "TArgs": {"list": {"type": ["DT_FLOAT"]}}, "dilations": {"list": {"i": ["1", "1", "1", "1"]}}, "use_cudnn_on_gpu": {"b": true}, "leakyrelu_alpha": {"f": 0.2}, "fused_ops": {"list": {"s": ["Qmlhc0FkZA=="]}}, "epsilon": {"f": 0.0}}}, {"name": "PartitionedCall/model_3/tf.math.sigmoid_40/Sigmoid", "op": "Sigmoid", "input": ["PartitionedCall/model_3/tf.math.add_47/Add"], "attr": {"T": {"type": "DT_FLOAT"}}}, {"name": "PartitionedCall/model_3/tf.concat_587/concat", "op": "ConcatV2", "input": ["PartitionedCall/model_3/tf.math.add_48/Add", "PartitionedCall/model_3/tf.math.add_50/Add", "PartitionedCall/model_3/tf.concat_587/concat/axis"], "attr": {"N": {"i": "2"}, "Tidx": {"type": "DT_INT32"}, "T": {"type": "DT_FLOAT"}}}, {"name": "PartitionedCall/model_3/tf.math.multiply_134/Mul", "op": "Mul", "input": ["PartitionedCall/model_3/tf.math.add_47/Add", "PartitionedCall/model_3/tf.math.sigmoid_40/Sigmoid"], "attr": {"T": {"type": "DT_FLOAT"}}}, {"name": "PartitionedCall/model_3/tf.compat.v1.transpose_1156/transpose", "op": "Transpose", "input": ["PartitionedCall/model_3/tf.concat_587/concat", "PartitionedCall/model_3/tf.compat.v1.transpose_1156/transpose/perm"], "attr": {"Tperm": {"type": "DT_INT32"}, "T": {"type": "DT_FLOAT"}}}, {"name": "PartitionedCall/model_3/tf.strided_slice_12/StridedSlice", "op": "StridedSlice", "input": ["PartitionedCall/model_3/tf.math.multiply_134/Mul", "5111", "5113", "PartitionedCall/model_3/tf.strided_slice_12/ones_like"], "attr": {"ellipsis_mask": {"i": "0"}, "end_mask": {"i": "7"}, "T": {"type": "DT_FLOAT"}, "new_axis_mask": {"i": "0"}, "shrink_axis_mask": {"i": "0"}, "Index": {"type": "DT_INT64"}, "begin_mask": {"i": "15"}}}, {"name": "PartitionedCall/model_3/tf.strided_slice_13/StridedSlice", "op": "StridedSlice", "input": ["PartitionedCall/model_3/tf.math.multiply_134/Mul", "5099", "5101", "PartitionedCall/model_3/tf.strided_slice_13/ones_like"], "attr": {"shrink_axis_mask": {"i": "0"}, "begin_mask": {"i": "7"}, "new_axis_mask": {"i": "0"}, "T": {"type": "DT_FLOAT"}, "Index": {"type": "DT_INT64"}, "ellipsis_mask": {"i": "0"}, "end_mask": {"i": "7"}}}, {"name": "PartitionedCall/model_3/tf.reshape/Reshape", "op": "Reshape", "input": ["PartitionedCall/model_3/tf.compat.v1.transpose_1156/transpose", "PartitionedCall/model_3/tf.reshape/Reshape/shape"], "attr": {"T": {"type": "DT_FLOAT"}, "Tshape": {"type": "DT_INT32"}}}, {"name": "PartitionedCall/model_3/tf.math.add_51/Add", "op": "_FusedConv2D", "input": ["PartitionedCall/model_3/tf.strided_slice_13/StridedSlice", "5103", "5105"], "device": "/device:CPU:0", "attr": {"num_host_args": {"i": "0"}, "dilations": {"list": {"i": ["1", "1", "1", "1"]}}, "explicit_paddings": {"list": {}}, "padding": {"s": "U0FNRQ=="}, "leakyrelu_alpha": {"f": 0.2}, "filter_format": {"s": "SFdJTw=="}, "fused_ops": {"list": {"s": ["Qmlhc0FkZA=="]}}, "strides": {"list": {"i": ["1", "1", "1", "1"]}}, "use_cudnn_on_gpu": {"b": true}, "epsilon": {"f": 0.0}, "TArgs": {"list": {"type": ["DT_FLOAT"]}}, "num_args": {"i": "1"}, "T": {"type": "DT_FLOAT"}, "data_format": {"s": "TkhXQw=="}}}, {"name": "PartitionedCall/model_3/tf.math.sigmoid_41/Sigmoid", "op": "Sigmoid", "input": ["PartitionedCall/model_3/tf.math.add_51/Add"], "attr": {"T": {"type": "DT_FLOAT"}}}, {"name": "PartitionedCall/model_3/tf.math.multiply_137/Mul", "op": "Mul", "input": ["PartitionedCall/model_3/tf.math.add_51/Add", "PartitionedCall/model_3/tf.math.sigmoid_41/Sigmoid"], "attr": {"T": {"type": "DT_FLOAT"}}}, {"name": "PartitionedCall/model_3/tf.math.add_52/Add", "op": "_FusedConv2D", "input": ["PartitionedCall/model_3/tf.math.multiply_137/Mul", "5107", "5109"], "device": "/device:CPU:0", "attr": {"filter_format": {"s": "SFdJTw=="}, "fused_ops": {"list": {"s": ["Qmlhc0FkZA=="]}}, "T": {"type": "DT_FLOAT"}, "TArgs": {"list": {"type": ["DT_FLOAT"]}}, "dilations": {"list": {"i": ["1", "1", "1", "1"]}}, "num_host_args": {"i": "0"}, "use_cudnn_on_gpu": {"b": true}, "explicit_paddings": {"list": {}}, "leakyrelu_alpha": {"f": 0.2}, "padding": {"s": "U0FNRQ=="}, "strides": {"list": {"i": ["1", "1", "1", "1"]}}, "epsilon": {"f": 0.0}, "num_args": {"i": "1"}, "data_format": {"s": "TkhXQw=="}}}, {"name": "PartitionedCall/model_3/tf.math.sigmoid_42/Sigmoid", "op": "Sigmoid", "input": ["PartitionedCall/model_3/tf.math.add_52/Add"], "attr": {"T": {"type": "DT_FLOAT"}}}, {"name": "PartitionedCall/model_3/tf.math.multiply_140/Mul", "op": "Mul", "input": ["PartitionedCall/model_3/tf.math.add_52/Add", "PartitionedCall/model_3/tf.math.sigmoid_42/Sigmoid"], "attr": {"T": {"type": "DT_FLOAT"}}}, {"name": "PartitionedCall/model_3/tf.concat_588/concat", "op": "ConcatV2", "input": ["PartitionedCall/model_3/tf.strided_slice_12/StridedSlice", "PartitionedCall/model_3/tf.strided_slice_13/StridedSlice", "PartitionedCall/model_3/tf.math.multiply_140/Mul", "PartitionedCall/model_3/tf.concat_588/concat/axis"], "attr": {"Tidx": {"type": "DT_INT32"}, "T": {"type": "DT_FLOAT"}, "N": {"i": "3"}}}, {"name": "PartitionedCall/model_3/tf.math.add_53/Add", "op": "_FusedConv2D", "input": ["PartitionedCall/model_3/tf.concat_588/concat", "5115", "5117"], "device": "/device:CPU:0", "attr": {"T": {"type": "DT_FLOAT"}, "num_host_args": {"i": "0"}, "data_format": {"s": "TkhXQw=="}, "fused_ops": {"list": {"s": ["Qmlhc0FkZA=="]}}, "strides": {"list": {"i": ["1", "1", "1", "1"]}}, "use_cudnn_on_gpu": {"b": true}, "explicit_paddings": {"list": {}}, "filter_format": {"s": "SFdJTw=="}, "TArgs": {"list": {"type": ["DT_FLOAT"]}}, "epsilon": {"f": 0.0}, "dilations": {"list": {"i": ["1", "1", "1", "1"]}}, "padding": {"s": "U0FNRQ=="}, "leakyrelu_alpha": {"f": 0.2}, "num_args": {"i": "1"}}}, {"name": "PartitionedCall/model_3/tf.math.sigmoid_43/Sigmoid", "op": "Sigmoid", "input": ["PartitionedCall/model_3/tf.math.add_53/Add"], "attr": {"T": {"type": "DT_FLOAT"}}}, {"name": "PartitionedCall/model_3/tf.math.multiply_143/Mul", "op": "Mul", "input": ["PartitionedCall/model_3/tf.math.add_53/Add", "PartitionedCall/model_3/tf.math.sigmoid_43/Sigmoid"], "attr": {"T": {"type": "DT_FLOAT"}}}, {"name": "PartitionedCall/model_3/tf.math.add_55/Add", "op": "_FusedConv2D", "input": ["PartitionedCall/model_3/tf.math.multiply_143/Mul", "5161", "5171"], "device": "/device:CPU:0", "attr": {"TArgs": {"list": {"type": ["DT_FLOAT"]}}, "num_args": {"i": "1"}, "num_host_args": {"i": "0"}, "T": {"type": "DT_FLOAT"}, "epsilon": {"f": 0.0}, "dilations": {"list": {"i": ["1", "1", "1", "1"]}}, "fused_ops": {"list": {"s": ["Qmlhc0FkZA=="]}}, "use_cudnn_on_gpu": {"b": true}, "strides": {"list": {"i": ["1", "1", "1", "1"]}}, "leakyrelu_alpha": {"f": 0.2}, "filter_format": {"s": "SFdJTw=="}, "explicit_paddings": {"list": {}}, "padding": {"s": "U0FNRQ=="}, "data_format": {"s": "TkhXQw=="}}}, {"name": "PartitionedCall/model_3/tf.math.add_56/Add", "op": "_FusedConv2D", "input": ["PartitionedCall/model_3/tf.math.multiply_143/Mul", "5159", "5169"], "device": "/device:CPU:0", "attr": {"padding": {"s": "U0FNRQ=="}, "explicit_paddings": {"list": {}}, "num_host_args": {"i": "0"}, "strides": {"list": {"i": ["1", "1", "1", "1"]}}, "fused_ops": {"list": {"s": ["Qmlhc0FkZA=="]}}, "num_args": {"i": "1"}, "use_cudnn_on_gpu": {"b": true}, "dilations": {"list": {"i": ["1", "1", "1", "1"]}}, "T": {"type": "DT_FLOAT"}, "data_format": {"s": "TkhXQw=="}, "epsilon": {"f": 0.0}, "TArgs": {"list": {"type": ["DT_FLOAT"]}}, "leakyrelu_alpha": {"f": 0.2}, "filter_format": {"s": "SFdJTw=="}}}, {"name": "PartitionedCall/model_3/tf.compat.v1.pad_6/Pad", "op": "Pad", "input": ["PartitionedCall/model_3/tf.math.multiply_143/Mul", "5119"], "attr": {"T": {"type": "DT_FLOAT"}, "Tpaddings": {"type": "DT_INT32"}}}, {"name": "PartitionedCall/model_3/tf.math.sigmoid_45/Sigmoid", "op": "Sigmoid", "input": ["PartitionedCall/model_3/tf.math.add_55/Add"], "attr": {"T": {"type": "DT_FLOAT"}}}, {"name": "PartitionedCall/model_3/tf.math.sigmoid_46/Sigmoid", "op": "Sigmoid", "input": ["PartitionedCall/model_3/tf.math.add_56/Add"], "attr": {"T": {"type": "DT_FLOAT"}}}, {"name": "PartitionedCall/model_3/tf.math.add_54/Add", "op": "_FusedConv2D", "input": ["PartitionedCall/model_3/tf.compat.v1.pad_6/Pad", "5121", "5123"], "device": "/device:CPU:0", "attr": {"epsilon": {"f": 0.0}, "TArgs": {"list": {"type": ["DT_FLOAT"]}}, "leakyrelu_alpha": {"f": 0.2}, "use_cudnn_on_gpu": {"b": true}, "num_host_args": {"i": "0"}, "num_args": {"i": "1"}, "padding": {"s": "VkFMSUQ="}, "strides": {"list": {"i": ["1", "2", "2", "1"]}}, "filter_format": {"s": "SFdJTw=="}, "data_format": {"s": "TkhXQw=="}, "dilations": {"list": {"i": ["1", "1", "1", "1"]}}, "explicit_paddings": {"list": {}}, "T": {"type": "DT_FLOAT"}, "fused_ops": {"list": {"s": ["Qmlhc0FkZA=="]}}}}, {"name": "PartitionedCall/model_3/tf.math.multiply_149/Mul", "op": "Mul", "input": ["PartitionedCall/model_3/tf.math.add_55/Add", "PartitionedCall/model_3/tf.math.sigmoid_45/Sigmoid"], "attr": {"T": {"type": "DT_FLOAT"}}}, {"name": "PartitionedCall/model_3/tf.math.multiply_152/Mul", "op": "Mul", "input": ["PartitionedCall/model_3/tf.math.add_56/Add", "PartitionedCall/model_3/tf.math.sigmoid_46/Sigmoid"], "attr": {"T": {"type": "DT_FLOAT"}}}, {"name": "PartitionedCall/model_3/tf.math.sigmoid_44/Sigmoid", "op": "Sigmoid", "input": ["PartitionedCall/model_3/tf.math.add_54/Add"], "attr": {"T": {"type": "DT_FLOAT"}}}, {"name": "PartitionedCall/model_3/tf.math.add_57/Add", "op": "_FusedConv2D", "input": ["PartitionedCall/model_3/tf.math.multiply_149/Mul", "5185", "5195"], "device": "/device:CPU:0", "attr": {"num_host_args": {"i": "0"}, "dilations": {"list": {"i": ["1", "1", "1", "1"]}}, "num_args": {"i": "1"}, "filter_format": {"s": "SFdJTw=="}, "fused_ops": {"list": {"s": ["Qmlhc0FkZA=="]}}, "epsilon": {"f": 0.0}, "TArgs": {"list": {"type": ["DT_FLOAT"]}}, "padding": {"s": "U0FNRQ=="}, "explicit_paddings": {"list": {}}, "leakyrelu_alpha": {"f": 0.2}, "T": {"type": "DT_FLOAT"}, "strides": {"list": {"i": ["1", "1", "1", "1"]}}, "use_cudnn_on_gpu": {"b": true}, "data_format": {"s": "TkhXQw=="}}}, {"name": "PartitionedCall/model_3/tf.math.add_58/Add", "op": "_FusedConv2D", "input": ["PartitionedCall/model_3/tf.math.multiply_152/Mul", "5183", "5193"], "device": "/device:CPU:0", "attr": {"leakyrelu_alpha": {"f": 0.2}, "num_args": {"i": "1"}, "explicit_paddings": {"list": {}}, "num_host_args": {"i": "0"}, "T": {"type": "DT_FLOAT"}, "TArgs": {"list": {"type": ["DT_FLOAT"]}}, "fused_ops": {"list": {"s": ["Qmlhc0FkZA=="]}}, "epsilon": {"f": 0.0}, "use_cudnn_on_gpu": {"b": true}, "padding": {"s": "U0FNRQ=="}, "dilations": {"list": {"i": ["1", "1", "1", "1"]}}, "strides": {"list": {"i": ["1", "1", "1", "1"]}}, "data_format": {"s": "TkhXQw=="}, "filter_format": {"s": "SFdJTw=="}}}, {"name": "PartitionedCall/model_3/tf.math.multiply_146/Mul", "op": "Mul", "input": ["PartitionedCall/model_3/tf.math.add_54/Add", "PartitionedCall/model_3/tf.math.sigmoid_44/Sigmoid"], "attr": {"T": {"type": "DT_FLOAT"}}}, {"name": "PartitionedCall/model_3/tf.math.sigmoid_47/Sigmoid", "op": "Sigmoid", "input": ["PartitionedCall/model_3/tf.math.add_57/Add"], "attr": {"T": {"type": "DT_FLOAT"}}}, {"name": "PartitionedCall/model_3/tf.math.sigmoid_48/Sigmoid", "op": "Sigmoid", "input": ["PartitionedCall/model_3/tf.math.add_58/Add"], "attr": {"T": {"type": "DT_FLOAT"}}}, {"name": "PartitionedCall/model_3/tf.concat_589/concat", "op": "ConcatV2", "input": ["PartitionedCall/model_3/tf.math.multiply_146/Mul", "PartitionedCall/model_3/tf.math.multiply_92/Mul", "PartitionedCall/model_3/tf.concat_589/concat/axis"], "attr": {"N": {"i": "2"}, "Tidx": {"type": "DT_INT32"}, "T": {"type": "DT_FLOAT"}}}, {"name": "PartitionedCall/model_3/tf.math.multiply_155/Mul", "op": "Mul", "input": ["PartitionedCall/model_3/tf.math.add_57/Add", "PartitionedCall/model_3/tf.math.sigmoid_47/Sigmoid"], "attr": {"T": {"type": "DT_FLOAT"}}}, {"name": "PartitionedCall/model_3/tf.math.multiply_158/Mul", "op": "Mul", "input": ["PartitionedCall/model_3/tf.math.add_58/Add", "PartitionedCall/model_3/tf.math.sigmoid_48/Sigmoid"], "attr": {"T": {"type": "DT_FLOAT"}}}, {"name": "PartitionedCall/model_3/tf.math.add_59/Add", "op": "_FusedConv2D", "input": ["PartitionedCall/model_3/tf.concat_589/concat", "5125", "5127"], "device": "/device:CPU:0", "attr": {"epsilon": {"f": 0.0}, "explicit_paddings": {"list": {}}, "leakyrelu_alpha": {"f": 0.2}, "filter_format": {"s": "SFdJTw=="}, "T": {"type": "DT_FLOAT"}, "strides": {"list": {"i": ["1", "1", "1", "1"]}}, "padding": {"s": "U0FNRQ=="}, "dilations": {"list": {"i": ["1", "1", "1", "1"]}}, "fused_ops": {"list": {"s": ["Qmlhc0FkZA=="]}}, "use_cudnn_on_gpu": {"b": true}, "data_format": {"s": "TkhXQw=="}, "num_host_args": {"i": "0"}, "TArgs": {"list": {"type": ["DT_FLOAT"]}}, "num_args": {"i": "1"}}}, {"name": "PartitionedCall/model_3/tf.math.add_60/Add", "op": "_FusedConv2D", "input": ["PartitionedCall/model_3/tf.math.multiply_155/Mul", "5207", "5217"], "device": "/device:CPU:0", "attr": {"num_args": {"i": "1"}, "use_cudnn_on_gpu": {"b": true}, "strides": {"list": {"i": ["1", "1", "1", "1"]}}, "TArgs": {"list": {"type": ["DT_FLOAT"]}}, "epsilon": {"f": 0.0}, "dilations": {"list": {"i": ["1", "1", "1", "1"]}}, "fused_ops": {"list": {"s": ["Qmlhc0FkZA=="]}}, "explicit_paddings": {"list": {}}, "filter_format": {"s": "SFdJTw=="}, "data_format": {"s": "TkhXQw=="}, "leakyrelu_alpha": {"f": 0.2}, "padding": {"s": "U0FNRQ=="}, "T": {"type": "DT_FLOAT"}, "num_host_args": {"i": "0"}}}, {"name": "PartitionedCall/model_3/tf.math.add_61/Add", "op": "_FusedConv2D", "input": ["PartitionedCall/model_3/tf.math.multiply_158/Mul", "5205", "5219"], "device": "/device:CPU:0", "attr": {"leakyrelu_alpha": {"f": 0.2}, "fused_ops": {"list": {"s": ["Qmlhc0FkZA=="]}}, "T": {"type": "DT_FLOAT"}, "num_args": {"i": "1"}, "filter_format": {"s": "SFdJTw=="}, "epsilon": {"f": 0.0}, "data_format": {"s": "TkhXQw=="}, "use_cudnn_on_gpu": {"b": true}, "dilations": {"list": {"i": ["1", "1", "1", "1"]}}, "strides": {"list": {"i": ["1", "1", "1", "1"]}}, "padding": {"s": "U0FNRQ=="}, "TArgs": {"list": {"type": ["DT_FLOAT"]}}, "num_host_args": {"i": "0"}, "explicit_paddings": {"list": {}}}}, {"name": "PartitionedCall/model_3/tf.math.sigmoid_49/Sigmoid", "op": "Sigmoid", "input": ["PartitionedCall/model_3/tf.math.add_59/Add"], "attr": {"T": {"type": "DT_FLOAT"}}}, {"name": "PartitionedCall/model_3/tf.concat_590/concat", "op": "ConcatV2", "input": ["PartitionedCall/model_3/tf.math.add_60/Add", "PartitionedCall/model_3/tf.math.add_61/Add", "PartitionedCall/model_3/tf.concat_590/concat/axis"], "attr": {"T": {"type": "DT_FLOAT"}, "Tidx": {"type": "DT_INT32"}, "N": {"i": "2"}}}, {"name": "PartitionedCall/model_3/tf.math.multiply_161/Mul", "op": "Mul", "input": ["PartitionedCall/model_3/tf.math.add_59/Add", "PartitionedCall/model_3/tf.math.sigmoid_49/Sigmoid"], "attr": {"T": {"type": "DT_FLOAT"}}}, {"name": "PartitionedCall/model_3/tf.compat.v1.transpose_1157/transpose", "op": "Transpose", "input": ["PartitionedCall/model_3/tf.concat_590/concat", "PartitionedCall/model_3/tf.compat.v1.transpose_1157/transpose/perm"], "attr": {"Tperm": {"type": "DT_INT32"}, "T": {"type": "DT_FLOAT"}}}, {"name": "PartitionedCall/model_3/tf.strided_slice_14/StridedSlice", "op": "StridedSlice", "input": ["PartitionedCall/model_3/tf.math.multiply_161/Mul", "5141", "5143", "PartitionedCall/model_3/tf.strided_slice_14/ones_like"], "attr": {"shrink_axis_mask": {"i": "0"}, "T": {"type": "DT_FLOAT"}, "ellipsis_mask": {"i": "0"}, "end_mask": {"i": "7"}, "Index": {"type": "DT_INT64"}, "new_axis_mask": {"i": "0"}, "begin_mask": {"i": "15"}}}, {"name": "PartitionedCall/model_3/tf.strided_slice_15/StridedSlice", "op": "StridedSlice", "input": ["PartitionedCall/model_3/tf.math.multiply_161/Mul", "5129", "5131", "PartitionedCall/model_3/tf.strided_slice_15/ones_like"], "attr": {"shrink_axis_mask": {"i": "0"}, "T": {"type": "DT_FLOAT"}, "ellipsis_mask": {"i": "0"}, "new_axis_mask": {"i": "0"}, "end_mask": {"i": "7"}, "begin_mask": {"i": "7"}, "Index": {"type": "DT_INT64"}}}, {"name": "PartitionedCall/model_3/tf.reshape_1/Reshape", "op": "Reshape", "input": ["PartitionedCall/model_3/tf.compat.v1.transpose_1157/transpose", "PartitionedCall/model_3/tf.reshape_1/Reshape/shape"], "attr": {"T": {"type": "DT_FLOAT"}, "Tshape": {"type": "DT_INT32"}}}, {"name": "PartitionedCall/model_3/tf.math.add_62/Add", "op": "_FusedConv2D", "input": ["PartitionedCall/model_3/tf.strided_slice_15/StridedSlice", "5133", "5135"], "device": "/device:CPU:0", "attr": {"dilations": {"list": {"i": ["1", "1", "1", "1"]}}, "strides": {"list": {"i": ["1", "1", "1", "1"]}}, "leakyrelu_alpha": {"f": 0.2}, "data_format": {"s": "TkhXQw=="}, "num_args": {"i": "1"}, "num_host_args": {"i": "0"}, "fused_ops": {"list": {"s": ["Qmlhc0FkZA=="]}}, "T": {"type": "DT_FLOAT"}, "TArgs": {"list": {"type": ["DT_FLOAT"]}}, "padding": {"s": "U0FNRQ=="}, "use_cudnn_on_gpu": {"b": true}, "explicit_paddings": {"list": {}}, "filter_format": {"s": "SFdJTw=="}, "epsilon": {"f": 0.0}}}, {"name": "PartitionedCall/model_3/tf.math.sigmoid_50/Sigmoid", "op": "Sigmoid", "input": ["PartitionedCall/model_3/tf.math.add_62/Add"], "attr": {"T": {"type": "DT_FLOAT"}}}, {"name": "PartitionedCall/model_3/tf.math.multiply_164/Mul", "op": "Mul", "input": ["PartitionedCall/model_3/tf.math.add_62/Add", "PartitionedCall/model_3/tf.math.sigmoid_50/Sigmoid"], "attr": {"T": {"type": "DT_FLOAT"}}}, {"name": "PartitionedCall/model_3/tf.math.add_63/Add", "op": "_FusedConv2D", "input": ["PartitionedCall/model_3/tf.math.multiply_164/Mul", "5137", "5139"], "device": "/device:CPU:0", "attr": {"use_cudnn_on_gpu": {"b": true}, "num_host_args": {"i": "0"}, "padding": {"s": "U0FNRQ=="}, "T": {"type": "DT_FLOAT"}, "data_format": {"s": "TkhXQw=="}, "epsilon": {"f": 0.0}, "num_args": {"i": "1"}, "fused_ops": {"list": {"s": ["Qmlhc0FkZA=="]}}, "strides": {"list": {"i": ["1", "1", "1", "1"]}}, "leakyrelu_alpha": {"f": 0.2}, "TArgs": {"list": {"type": ["DT_FLOAT"]}}, "explicit_paddings": {"list": {}}, "filter_format": {"s": "SFdJTw=="}, "dilations": {"list": {"i": ["1", "1", "1", "1"]}}}}, {"name": "PartitionedCall/model_3/tf.math.sigmoid_51/Sigmoid", "op": "Sigmoid", "input": ["PartitionedCall/model_3/tf.math.add_63/Add"], "attr": {"T": {"type": "DT_FLOAT"}}}, {"name": "PartitionedCall/model_3/tf.math.multiply_167/Mul", "op": "Mul", "input": ["PartitionedCall/model_3/tf.math.add_63/Add", "PartitionedCall/model_3/tf.math.sigmoid_51/Sigmoid"], "attr": {"T": {"type": "DT_FLOAT"}}}, {"name": "PartitionedCall/model_3/tf.concat_591/concat", "op": "ConcatV2", "input": ["PartitionedCall/model_3/tf.strided_slice_14/StridedSlice", "PartitionedCall/model_3/tf.strided_slice_15/StridedSlice", "PartitionedCall/model_3/tf.math.multiply_167/Mul", "PartitionedCall/model_3/tf.concat_591/concat/axis"], "attr": {"T": {"type": "DT_FLOAT"}, "Tidx": {"type": "DT_INT32"}, "N": {"i": "3"}}}, {"name": "PartitionedCall/model_3/tf.math.add_64/Add", "op": "_FusedConv2D", "input": ["PartitionedCall/model_3/tf.concat_591/concat", "5145", "5147"], "device": "/device:CPU:0", "attr": {"data_format": {"s": "TkhXQw=="}, "fused_ops": {"list": {"s": ["Qmlhc0FkZA=="]}}, "strides": {"list": {"i": ["1", "1", "1", "1"]}}, "filter_format": {"s": "SFdJTw=="}, "TArgs": {"list": {"type": ["DT_FLOAT"]}}, "padding": {"s": "U0FNRQ=="}, "T": {"type": "DT_FLOAT"}, "explicit_paddings": {"list": {}}, "num_host_args": {"i": "0"}, "dilations": {"list": {"i": ["1", "1", "1", "1"]}}, "use_cudnn_on_gpu": {"b": true}, "num_args": {"i": "1"}, "epsilon": {"f": 0.0}, "leakyrelu_alpha": {"f": 0.2}}}, {"name": "PartitionedCall/model_3/tf.math.sigmoid_52/Sigmoid", "op": "Sigmoid", "input": ["PartitionedCall/model_3/tf.math.add_64/Add"], "attr": {"T": {"type": "DT_FLOAT"}}}, {"name": "PartitionedCall/model_3/tf.math.multiply_170/Mul", "op": "Mul", "input": ["PartitionedCall/model_3/tf.math.add_64/Add", "PartitionedCall/model_3/tf.math.sigmoid_52/Sigmoid"], "attr": {"T": {"type": "DT_FLOAT"}}}, {"name": "PartitionedCall/model_3/tf.math.add_65/Add", "op": "_FusedConv2D", "input": ["PartitionedCall/model_3/tf.math.multiply_170/Mul", "5157", "5167"], "device": "/device:CPU:0", "attr": {"T": {"type": "DT_FLOAT"}, "explicit_paddings": {"list": {}}, "num_args": {"i": "1"}, "leakyrelu_alpha": {"f": 0.2}, "use_cudnn_on_gpu": {"b": true}, "strides": {"list": {"i": ["1", "1", "1", "1"]}}, "dilations": {"list": {"i": ["1", "1", "1", "1"]}}, "padding": {"s": "U0FNRQ=="}, "filter_format": {"s": "SFdJTw=="}, "data_format": {"s": "TkhXQw=="}, "fused_ops": {"list": {"s": ["Qmlhc0FkZA=="]}}, "TArgs": {"list": {"type": ["DT_FLOAT"]}}, "num_host_args": {"i": "0"}, "epsilon": {"f": 0.0}}}, {"name": "PartitionedCall/model_3/tf.math.add_66/Add", "op": "_FusedConv2D", "input": ["PartitionedCall/model_3/tf.math.multiply_170/Mul", "5155", "5165"], "device": "/device:CPU:0", "attr": {"num_host_args": {"i": "0"}, "filter_format": {"s": "SFdJTw=="}, "TArgs": {"list": {"type": ["DT_FLOAT"]}}, "padding": {"s": "U0FNRQ=="}, "use_cudnn_on_gpu": {"b": true}, "fused_ops": {"list": {"s": ["Qmlhc0FkZA=="]}}, "epsilon": {"f": 0.0}, "data_format": {"s": "TkhXQw=="}, "dilations": {"list": {"i": ["1", "1", "1", "1"]}}, "leakyrelu_alpha": {"f": 0.2}, "explicit_paddings": {"list": {}}, "num_args": {"i": "1"}, "strides": {"list": {"i": ["1", "1", "1", "1"]}}, "T": {"type": "DT_FLOAT"}}}, {"name": "PartitionedCall/model_3/tf.math.sigmoid_53/Sigmoid", "op": "Sigmoid", "input": ["PartitionedCall/model_3/tf.math.add_65/Add"], "attr": {"T": {"type": "DT_FLOAT"}}}, {"name": "PartitionedCall/model_3/tf.math.sigmoid_54/Sigmoid", "op": "Sigmoid", "input": ["PartitionedCall/model_3/tf.math.add_66/Add"], "attr": {"T": {"type": "DT_FLOAT"}}}, {"name": "PartitionedCall/model_3/tf.math.multiply_173/Mul", "op": "Mul", "input": ["PartitionedCall/model_3/tf.math.add_65/Add", "PartitionedCall/model_3/tf.math.sigmoid_53/Sigmoid"], "attr": {"T": {"type": "DT_FLOAT"}}}, {"name": "PartitionedCall/model_3/tf.math.multiply_176/Mul", "op": "Mul", "input": ["PartitionedCall/model_3/tf.math.add_66/Add", "PartitionedCall/model_3/tf.math.sigmoid_54/Sigmoid"], "attr": {"T": {"type": "DT_FLOAT"}}}, {"name": "PartitionedCall/model_3/tf.math.add_67/Add", "op": "_FusedConv2D", "input": ["PartitionedCall/model_3/tf.math.multiply_173/Mul", "5181", "5191"], "device": "/device:CPU:0", "attr": {"padding": {"s": "U0FNRQ=="}, "num_args": {"i": "1"}, "use_cudnn_on_gpu": {"b": true}, "dilations": {"list": {"i": ["1", "1", "1", "1"]}}, "data_format": {"s": "TkhXQw=="}, "fused_ops": {"list": {"s": ["Qmlhc0FkZA=="]}}, "strides": {"list": {"i": ["1", "1", "1", "1"]}}, "explicit_paddings": {"list": {}}, "TArgs": {"list": {"type": ["DT_FLOAT"]}}, "T": {"type": "DT_FLOAT"}, "epsilon": {"f": 0.0}, "leakyrelu_alpha": {"f": 0.2}, "filter_format": {"s": "SFdJTw=="}, "num_host_args": {"i": "0"}}}, {"name": "PartitionedCall/model_3/tf.math.add_68/Add", "op": "_FusedConv2D", "input": ["PartitionedCall/model_3/tf.math.multiply_176/Mul", "5179", "5189"], "device": "/device:CPU:0", "attr": {"leakyrelu_alpha": {"f": 0.2}, "epsilon": {"f": 0.0}, "fused_ops": {"list": {"s": ["Qmlhc0FkZA=="]}}, "data_format": {"s": "TkhXQw=="}, "num_host_args": {"i": "0"}, "use_cudnn_on_gpu": {"b": true}, "dilations": {"list": {"i": ["1", "1", "1", "1"]}}, "TArgs": {"list": {"type": ["DT_FLOAT"]}}, "T": {"type": "DT_FLOAT"}, "padding": {"s": "U0FNRQ=="}, "num_args": {"i": "1"}, "filter_format": {"s": "SFdJTw=="}, "strides": {"list": {"i": ["1", "1", "1", "1"]}}, "explicit_paddings": {"list": {}}}}, {"name": "PartitionedCall/model_3/tf.math.sigmoid_55/Sigmoid", "op": "Sigmoid", "input": ["PartitionedCall/model_3/tf.math.add_67/Add"], "attr": {"T": {"type": "DT_FLOAT"}}}, {"name": "PartitionedCall/model_3/tf.math.sigmoid_56/Sigmoid", "op": "Sigmoid", "input": ["PartitionedCall/model_3/tf.math.add_68/Add"], "attr": {"T": {"type": "DT_FLOAT"}}}, {"name": "PartitionedCall/model_3/tf.math.multiply_179/Mul", "op": "Mul", "input": ["PartitionedCall/model_3/tf.math.add_67/Add", "PartitionedCall/model_3/tf.math.sigmoid_55/Sigmoid"], "attr": {"T": {"type": "DT_FLOAT"}}}, {"name": "PartitionedCall/model_3/tf.math.multiply_182/Mul", "op": "Mul", "input": ["PartitionedCall/model_3/tf.math.add_68/Add", "PartitionedCall/model_3/tf.math.sigmoid_56/Sigmoid"], "attr": {"T": {"type": "DT_FLOAT"}}}, {"name": "PartitionedCall/model_3/tf.math.add_69/Add", "op": "_FusedConv2D", "input": ["PartitionedCall/model_3/tf.math.multiply_179/Mul", "5203", "5213"], "device": "/device:CPU:0", "attr": {"explicit_paddings": {"list": {}}, "fused_ops": {"list": {"s": ["Qmlhc0FkZA=="]}}, "strides": {"list": {"i": ["1", "1", "1", "1"]}}, "num_args": {"i": "1"}, "epsilon": {"f": 0.0}, "num_host_args": {"i": "0"}, "T": {"type": "DT_FLOAT"}, "use_cudnn_on_gpu": {"b": true}, "TArgs": {"list": {"type": ["DT_FLOAT"]}}, "padding": {"s": "U0FNRQ=="}, "filter_format": {"s": "SFdJTw=="}, "leakyrelu_alpha": {"f": 0.2}, "dilations": {"list": {"i": ["1", "1", "1", "1"]}}, "data_format": {"s": "TkhXQw=="}}}, {"name": "PartitionedCall/model_3/tf.math.add_70/Add", "op": "_FusedConv2D", "input": ["PartitionedCall/model_3/tf.math.multiply_182/Mul", "5201", "5215"], "device": "/device:CPU:0", "attr": {"TArgs": {"list": {"type": ["DT_FLOAT"]}}, "epsilon": {"f": 0.0}, "strides": {"list": {"i": ["1", "1", "1", "1"]}}, "dilations": {"list": {"i": ["1", "1", "1", "1"]}}, "padding": {"s": "U0FNRQ=="}, "explicit_paddings": {"list": {}}, "num_host_args": {"i": "0"}, "data_format": {"s": "TkhXQw=="}, "num_args": {"i": "1"}, "filter_format": {"s": "SFdJTw=="}, "leakyrelu_alpha": {"f": 0.2}, "use_cudnn_on_gpu": {"b": true}, "T": {"type": "DT_FLOAT"}, "fused_ops": {"list": {"s": ["Qmlhc0FkZA=="]}}}}, {"name": "PartitionedCall/model_3/tf.concat_592/concat", "op": "ConcatV2", "input": ["PartitionedCall/model_3/tf.math.add_69/Add", "PartitionedCall/model_3/tf.math.add_70/Add", "PartitionedCall/model_3/tf.concat_592/concat/axis"], "attr": {"T": {"type": "DT_FLOAT"}, "Tidx": {"type": "DT_INT32"}, "N": {"i": "2"}}}, {"name": "PartitionedCall/model_3/tf.compat.v1.transpose_1158/transpose", "op": "Transpose", "input": ["PartitionedCall/model_3/tf.concat_592/concat", "PartitionedCall/model_3/tf.compat.v1.transpose_1158/transpose/perm"], "attr": {"Tperm": {"type": "DT_INT32"}, "T": {"type": "DT_FLOAT"}}}, {"name": "PartitionedCall/model_3/tf.reshape_2/Reshape", "op": "Reshape", "input": ["PartitionedCall/model_3/tf.compat.v1.transpose_1158/transpose", "PartitionedCall/model_3/tf.reshape_2/Reshape/shape"], "attr": {"T": {"type": "DT_FLOAT"}, "Tshape": {"type": "DT_INT32"}}}, {"name": "PartitionedCall/model_3/tf.concat_593/concat", "op": "ConcatV2", "input": ["PartitionedCall/model_3/tf.reshape/Reshape", "PartitionedCall/model_3/tf.reshape_1/Reshape", "PartitionedCall/model_3/tf.reshape_2/Reshape", "PartitionedCall/model_3/tf.concat_593/concat/axis"], "attr": {"Tidx": {"type": "DT_INT32"}, "N": {"i": "3"}, "T": {"type": "DT_FLOAT"}}}, {"name": "PartitionedCall/model_3/tf.strided_slice_17/StridedSlice", "op": "StridedSlice", "input": ["PartitionedCall/model_3/tf.concat_593/concat", "5241", "5243", "PartitionedCall/model_3/tf.strided_slice_17/StridedSlice/strides"], "attr": {"end_mask": {"i": "5"}, "ellipsis_mask": {"i": "0"}, "begin_mask": {"i": "5"}, "Index": {"type": "DT_INT64"}, "new_axis_mask": {"i": "0"}, "T": {"type": "DT_FLOAT"}, "shrink_axis_mask": {"i": "0"}}}, {"name": "PartitionedCall/model_3/tf.strided_slice_16/StridedSlice", "op": "StridedSlice", "input": ["PartitionedCall/model_3/tf.concat_593/concat", "5221", "5223", "PartitionedCall/model_3/tf.strided_slice_16/StridedSlice/strides"], "attr": {"end_mask": {"i": "5"}, "Index": {"type": "DT_INT64"}, "ellipsis_mask": {"i": "0"}, "begin_mask": {"i": "7"}, "new_axis_mask": {"i": "0"}, "T": {"type": "DT_FLOAT"}, "shrink_axis_mask": {"i": "0"}}}, {"name": "PartitionedCall/model_3/tf.math.sigmoid_57/Sigmoid", "op": "Sigmoid", "input": ["PartitionedCall/model_3/tf.strided_slice_17/StridedSlice"], "attr": {"T": {"type": "DT_FLOAT"}}}, {"name": "PartitionedCall/model_3/tf.reshape_3/Reshape", "op": "Reshape", "input": ["PartitionedCall/model_3/tf.strided_slice_16/StridedSlice", "PartitionedCall/model_3/tf.reshape_3/Reshape/shape"], "attr": {"Tshape": {"type": "DT_INT32"}, "T": {"type": "DT_FLOAT"}}}, {"name": "PartitionedCall/model_3/tf.compat.v1.transpose_1160/transpose", "op": "Transpose", "input": ["PartitionedCall/model_3/tf.reshape_3/Reshape", "PartitionedCall/model_3/tf.compat.v1.transpose_1160/transpose/perm"], "attr": {"Tperm": {"type": "DT_INT32"}, "T": {"type": "DT_FLOAT"}}}, {"name": "PartitionedCall/model_3/tf.compat.v1.transpose_1161/transpose", "op": "Transpose", "input": ["PartitionedCall/model_3/tf.compat.v1.transpose_1160/transpose", "PartitionedCall/model_3/tf.compat.v1.transpose_1161/transpose/perm"], "attr": {"Tperm": {"type": "DT_INT32"}, "T": {"type": "DT_FLOAT"}}}, {"name": "PartitionedCall/model_3/tf.nn.softmax//model.22/dfl/Softmax", "op": "Softmax", "input": ["PartitionedCall/model_3/tf.compat.v1.transpose_1161/transpose"], "attr": {"T": {"type": "DT_FLOAT"}}}, {"name": "PartitionedCall/model_3/tf.nn.convolution_65/convolution", "op": "Conv2D", "input": ["PartitionedCall/model_3/tf.nn.softmax//model.22/dfl/Softmax", "5225"], "device": "/device:CPU:0", "attr": {"padding": {"s": "U0FNRQ=="}, "T": {"type": "DT_FLOAT"}, "data_format": {"s": "TkhXQw=="}, "use_cudnn_on_gpu": {"b": true}, "strides": {"list": {"i": ["1", "1", "1", "1"]}}, "explicit_paddings": {"list": {}}, "dilations": {"list": {"i": ["1", "1", "1", "1"]}}}}, {"name": "PartitionedCall/model_3/tf.compat.v1.transpose_1164/transpose", "op": "Transpose", "input": ["PartitionedCall/model_3/tf.nn.convolution_65/convolution", "PartitionedCall/model_3/tf.compat.v1.transpose_1164/transpose/perm"], "attr": {"Tperm": {"type": "DT_INT32"}, "T": {"type": "DT_FLOAT"}}}, {"name": "PartitionedCall/model_3/tf.reshape_4/Reshape", "op": "Reshape", "input": ["PartitionedCall/model_3/tf.compat.v1.transpose_1164/transpose", "PartitionedCall/model_3/tf.reshape_4/Reshape/shape"], "attr": {"Tshape": {"type": "DT_INT32"}, "T": {"type": "DT_FLOAT"}}}, {"name": "PartitionedCall/model_3/tf.strided_slice_19/StridedSlice", "op": "StridedSlice", "input": ["PartitionedCall/model_3/tf.reshape_4/Reshape", "5227", "5229", "PartitionedCall/model_3/tf.strided_slice_19/ones_like"], "attr": {"ellipsis_mask": {"i": "0"}, "Index": {"type": "DT_INT64"}, "new_axis_mask": {"i": "0"}, "begin_mask": {"i": "5"}, "T": {"type": "DT_FLOAT"}, "shrink_axis_mask": {"i": "0"}, "end_mask": {"i": "5"}}}, {"name": "PartitionedCall/model_3/tf.strided_slice_18/StridedSlice", "op": "StridedSlice", "input": ["PartitionedCall/model_3/tf.reshape_4/Reshape", "5231", "5233", "PartitionedCall/model_3/tf.strided_slice_18/ones_like"], "attr": {"begin_mask": {"i": "7"}, "end_mask": {"i": "5"}, "ellipsis_mask": {"i": "0"}, "shrink_axis_mask": {"i": "0"}, "Index": {"type": "DT_INT64"}, "T": {"type": "DT_FLOAT"}, "new_axis_mask": {"i": "0"}}}, {"name": "PartitionedCall/model_3/tf.math.add_71/Add", "op": "AddV2", "input": ["5235", "PartitionedCall/model_3/tf.strided_slice_19/StridedSlice"], "attr": {"T": {"type": "DT_FLOAT"}}}, {"name": "PartitionedCall/model_3/tf.math.subtract/Sub", "op": "Sub", "input": ["5237", "PartitionedCall/model_3/tf.strided_slice_18/StridedSlice"], "attr": {"T": {"type": "DT_FLOAT"}}}, {"name": "PartitionedCall/model_3/tf.math.add_72/Add", "op": "AddV2", "input": ["PartitionedCall/model_3/tf.math.subtract/Sub", "PartitionedCall/model_3/tf.math.add_71/Add"], "attr": {"T": {"type": "DT_FLOAT"}}}, {"name": "PartitionedCall/model_3/tf.math.subtract_1/Sub", "op": "Sub", "input": ["PartitionedCall/model_3/tf.math.add_71/Add", "PartitionedCall/model_3/tf.math.subtract/Sub"], "attr": {"T": {"type": "DT_FLOAT"}}}, {"name": "PartitionedCall/model_3/tf.math.divide/truediv", "op": "Mul", "input": ["PartitionedCall/model_3/tf.math.add_72/Add", "ConstantFolding/PartitionedCall/model_3/tf.math.divide/truediv_recip"], "attr": {"T": {"type": "DT_FLOAT"}}}, {"name": "PartitionedCall/model_3/tf.concat_594/concat", "op": "ConcatV2", "input": ["PartitionedCall/model_3/tf.math.divide/truediv", "PartitionedCall/model_3/tf.math.subtract_1/Sub", "PartitionedCall/model_3/tf.concat_594/concat/axis"], "attr": {"Tidx": {"type": "DT_INT32"}, "T": {"type": "DT_FLOAT"}, "N": {"i": "2"}}}, {"name": "PartitionedCall/model_3/tf.math.multiply_195/Mul", "op": "Mul", "input": ["PartitionedCall/model_3/tf.concat_594/concat", "PartitionedCall/model_3/tf.math.multiply_195/Mul/y"], "attr": {"T": {"type": "DT_FLOAT"}}}, {"name": "PartitionedCall/model_3/output0/concat", "op": "ConcatV2", "input": ["PartitionedCall/model_3/tf.math.multiply_195/Mul", "PartitionedCall/model_3/tf.math.sigmoid_57/Sigmoid", "PartitionedCall/model_3/output0/concat/axis"], "attr": {"N": {"i": "2"}, "T": {"type": "DT_FLOAT"}, "Tidx": {"type": "DT_INT32"}}}, {"name": "Identity", "op": "Identity", "input": ["PartitionedCall/model_3/output0/concat"], "attr": {"T": {"type": "DT_FLOAT"}}}], "library": {}, "versions": {"producer": 1482}}, "weightsManifest": [{"paths": ["group1-shard1of4.bin", "group1-shard2of4.bin", "group1-shard3of4.bin", "group1-shard4of4.bin"], "weights": [{"name": "ConstantFolding/PartitionedCall/model_3/tf.math.divide/truediv_recip", "shape": [1, 1, 1], "dtype": "float32"}, {"name": "5235", "shape": [1, 2, 8400], "dtype": "float32"}, {"name": "5227", "shape": [3], "dtype": "int32"}, {"name": "5229", "shape": [3], "dtype": "int32"}, {"name": "PartitionedCall/model_3/tf.strided_slice_19/ones_like", "shape": [3], "dtype": "int32"}, {"name": "5237", "shape": [1, 2, 8400], "dtype": "float32"}, {"name": "5221", "shape": [3], "dtype": "int32"}, {"name": "5223", "shape": [3], "dtype": "int32"}, {"name": "PartitionedCall/model_3/tf.strided_slice_16/StridedSlice/strides", "shape": [3], "dtype": "int32"}, {"name": "PartitionedCall/model_3/tf.reshape_3/Reshape/shape", "shape": [4], "dtype": "int32"}, {"name": "PartitionedCall/model_3/tf.compat.v1.transpose_1160/transpose/perm", "shape": [4], "dtype": "int32"}, {"name": "PartitionedCall/model_3/tf.compat.v1.transpose_1161/transpose/perm", "shape": [4], "dtype": "int32"}, {"name": "5225", "shape": [1, 1, 16, 1], "dtype": "float32"}, {"name": "PartitionedCall/model_3/tf.compat.v1.transpose_1164/transpose/perm", "shape": [4], "dtype": "int32"}, {"name": "PartitionedCall/model_3/tf.reshape_4/Reshape/shape", "shape": [3], "dtype": "int32"}, {"name": "5231", "shape": [3], "dtype": "int32"}, {"name": "5233", "shape": [3], "dtype": "int32"}, {"name": "PartitionedCall/model_3/tf.strided_slice_18/ones_like", "shape": [3], "dtype": "int32"}, {"name": "PartitionedCall/model_3/tf.concat_594/concat/axis", "shape": [], "dtype": "int32"}, {"name": "PartitionedCall/model_3/tf.math.multiply_195/Mul/y", "shape": [1, 1, 8400], "dtype": "float32"}, {"name": "5153", "shape": [3, 3, 64, 64], "dtype": "float32"}, {"name": "5163", "shape": [64], "dtype": "float32"}, {"name": "5177", "shape": [3, 3, 64, 64], "dtype": "float32"}, {"name": "5187", "shape": [64], "dtype": "float32"}, {"name": "5199", "shape": [1, 1, 64, 64], "dtype": "float32"}, {"name": "5211", "shape": [64], "dtype": "float32"}, {"name": "5149", "shape": [3, 3, 64, 80], "dtype": "float32"}, {"name": "5151", "shape": [80], "dtype": "float32"}, {"name": "5173", "shape": [3, 3, 80, 80], "dtype": "float32"}, {"name": "5175", "shape": [80], "dtype": "float32"}, {"name": "5197", "shape": [1, 1, 80, 80], "dtype": "float32"}, {"name": "5209", "shape": [80], "dtype": "float32"}, {"name": "PartitionedCall/model_3/tf.concat_587/concat/axis", "shape": [], "dtype": "int32"}, {"name": "PartitionedCall/model_3/tf.compat.v1.transpose_1156/transpose/perm", "shape": [4], "dtype": "int32"}, {"name": "PartitionedCall/model_3/tf.reshape/Reshape/shape", "shape": [3], "dtype": "int32"}, {"name": "5161", "shape": [3, 3, 128, 64], "dtype": "float32"}, {"name": "5171", "shape": [64], "dtype": "float32"}, {"name": "5185", "shape": [3, 3, 64, 64], "dtype": "float32"}, {"name": "5195", "shape": [64], "dtype": "float32"}, {"name": "5207", "shape": [1, 1, 64, 64], "dtype": "float32"}, {"name": "5217", "shape": [64], "dtype": "float32"}, {"name": "5159", "shape": [3, 3, 128, 80], "dtype": "float32"}, {"name": "5169", "shape": [80], "dtype": "float32"}, {"name": "5183", "shape": [3, 3, 80, 80], "dtype": "float32"}, {"name": "5193", "shape": [80], "dtype": "float32"}, {"name": "5205", "shape": [1, 1, 80, 80], "dtype": "float32"}, {"name": "5219", "shape": [80], "dtype": "float32"}, {"name": "PartitionedCall/model_3/tf.concat_590/concat/axis", "shape": [], "dtype": "int32"}, {"name": "PartitionedCall/model_3/tf.compat.v1.transpose_1157/transpose/perm", "shape": [4], "dtype": "int32"}, {"name": "PartitionedCall/model_3/tf.reshape_1/Reshape/shape", "shape": [3], "dtype": "int32"}, {"name": "5157", "shape": [3, 3, 256, 64], "dtype": "float32"}, {"name": "5167", "shape": [64], "dtype": "float32"}, {"name": "5181", "shape": [3, 3, 64, 64], "dtype": "float32"}, {"name": "5191", "shape": [64], "dtype": "float32"}, {"name": "5203", "shape": [1, 1, 64, 64], "dtype": "float32"}, {"name": "5213", "shape": [64], "dtype": "float32"}, {"name": "5141", "shape": [4], "dtype": "int32"}, {"name": "5143", "shape": [4], "dtype": "int32"}, {"name": "PartitionedCall/model_3/tf.strided_slice_14/ones_like", "shape": [4], "dtype": "int32"}, {"name": "5111", "shape": [4], "dtype": "int32"}, {"name": "5113", "shape": [4], "dtype": "int32"}, {"name": "PartitionedCall/model_3/tf.strided_slice_12/ones_like", "shape": [4], "dtype": "int32"}, {"name": "5081", "shape": [4], "dtype": "int32"}, {"name": "5083", "shape": [4], "dtype": "int32"}, {"name": "PartitionedCall/model_3/tf.strided_slice_10/ones_like", "shape": [4], "dtype": "int32"}, {"name": "PartitionedCall/model_3/lambda_1//model.13/Resize/size", "shape": [2], "dtype": "int32"}, {"name": "PartitionedCall/model_3/tf.concat_7/concat/axis", "shape": [], "dtype": "int32"}, {"name": "5065", "shape": [1, 1, 192, 64], "dtype": "float32"}, {"name": "5067", "shape": [64], "dtype": "float32"}, {"name": "5069", "shape": [4], "dtype": "int32"}, {"name": "5071", "shape": [4], "dtype": "int32"}, {"name": "PartitionedCall/model_3/tf.strided_slice_11/ones_like", "shape": [4], "dtype": "int32"}, {"name": "5073", "shape": [3, 3, 32, 32], "dtype": "float32"}, {"name": "5075", "shape": [32], "dtype": "float32"}, {"name": "5077", "shape": [3, 3, 32, 32], "dtype": "float32"}, {"name": "5079", "shape": [32], "dtype": "float32"}, {"name": "PartitionedCall/model_3/tf.concat_8/concat/axis", "shape": [], "dtype": "int32"}, {"name": "5085", "shape": [1, 1, 96, 64], "dtype": "float32"}, {"name": "5087", "shape": [64], "dtype": "float32"}, {"name": "5089", "shape": [4, 2], "dtype": "int32"}, {"name": "5091", "shape": [3, 3, 64, 64], "dtype": "float32"}, {"name": "5093", "shape": [64], "dtype": "float32"}, {"name": "5057", "shape": [4], "dtype": "int32"}, {"name": "5059", "shape": [4], "dtype": "int32"}, {"name": "PartitionedCall/model_3/tf.strided_slice_8/ones_like", "shape": [4], "dtype": "int32"}, {"name": "PartitionedCall/model_3/lambda//model.10/Resize/size", "shape": [2], "dtype": "int32"}, {"name": "PartitionedCall/model_3/tf.concat_5/concat/axis", "shape": [], "dtype": "int32"}, {"name": "5041", "shape": [1, 1, 384, 128], "dtype": "float32"}, {"name": "5043", "shape": [128], "dtype": "float32"}, {"name": "5045", "shape": [4], "dtype": "int32"}, {"name": "5047", "shape": [4], "dtype": "int32"}, {"name": "PartitionedCall/model_3/tf.strided_slice_9/ones_like", "shape": [4], "dtype": "int32"}, {"name": "5049", "shape": [3, 3, 64, 64], "dtype": "float32"}, {"name": "5051", "shape": [64], "dtype": "float32"}, {"name": "5053", "shape": [3, 3, 64, 64], "dtype": "float32"}, {"name": "5055", "shape": [64], "dtype": "float32"}, {"name": "PartitionedCall/model_3/tf.concat_6/concat/axis", "shape": [], "dtype": "int32"}, {"name": "5061", "shape": [1, 1, 192, 128], "dtype": "float32"}, {"name": "5063", "shape": [128], "dtype": "float32"}, {"name": "PartitionedCall/model_3/tf.concat_9/concat/axis", "shape": [], "dtype": "int32"}, {"name": "5095", "shape": [1, 1, 192, 128], "dtype": "float32"}, {"name": "5097", "shape": [128], "dtype": "float32"}, {"name": "5099", "shape": [4], "dtype": "int32"}, {"name": "5101", "shape": [4], "dtype": "int32"}, {"name": "PartitionedCall/model_3/tf.strided_slice_13/ones_like", "shape": [4], "dtype": "int32"}, {"name": "5103", "shape": [3, 3, 64, 64], "dtype": "float32"}, {"name": "5105", "shape": [64], "dtype": "float32"}, {"name": "5107", "shape": [3, 3, 64, 64], "dtype": "float32"}, {"name": "5109", "shape": [64], "dtype": "float32"}, {"name": "PartitionedCall/model_3/tf.concat_588/concat/axis", "shape": [], "dtype": "int32"}, {"name": "5115", "shape": [1, 1, 192, 128], "dtype": "float32"}, {"name": "5117", "shape": [128], "dtype": "float32"}, {"name": "5119", "shape": [4, 2], "dtype": "int32"}, {"name": "5121", "shape": [3, 3, 128, 128], "dtype": "float32"}, {"name": "5123", "shape": [128], "dtype": "float32"}, {"name": "5025", "shape": [4], "dtype": "int32"}, {"name": "5027", "shape": [4], "dtype": "int32"}, {"name": "PartitionedCall/model_3/tf.strided_slice_6/ones_like", "shape": [4], "dtype": "int32"}, {"name": "4995", "shape": [4], "dtype": "int32"}, {"name": "4997", "shape": [4], "dtype": "int32"}, {"name": "PartitionedCall/model_3/tf.strided_slice_4/ones_like", "shape": [4], "dtype": "int32"}, {"name": "4957", "shape": [4], "dtype": "int32"}, {"name": "4959", "shape": [4], "dtype": "int32"}, {"name": "PartitionedCall/model_3/tf.strided_slice_2/ones_like", "shape": [4], "dtype": "int32"}, {"name": "4919", "shape": [4], "dtype": "int32"}, {"name": "4921", "shape": [4], "dtype": "int32"}, {"name": "PartitionedCall/model_3/tf.strided_slice/ones_like", "shape": [4], "dtype": "int32"}, {"name": "4891", "shape": [4, 2], "dtype": "int32"}, {"name": "4893", "shape": [3, 3, 3, 16], "dtype": "float32"}, {"name": "4895", "shape": [16], "dtype": "float32"}, {"name": "4897", "shape": [4, 2], "dtype": "int32"}, {"name": "4899", "shape": [3, 3, 16, 32], "dtype": "float32"}, {"name": "4901", "shape": [32], "dtype": "float32"}, {"name": "4903", "shape": [1, 1, 32, 32], "dtype": "float32"}, {"name": "4905", "shape": [32], "dtype": "float32"}, {"name": "4907", "shape": [4], "dtype": "int32"}, {"name": "4909", "shape": [4], "dtype": "int32"}, {"name": "PartitionedCall/model_3/tf.strided_slice_1/ones_like", "shape": [4], "dtype": "int32"}, {"name": "4911", "shape": [3, 3, 16, 16], "dtype": "float32"}, {"name": "4913", "shape": [16], "dtype": "float32"}, {"name": "4915", "shape": [3, 3, 16, 16], "dtype": "float32"}, {"name": "4917", "shape": [16], "dtype": "float32"}, {"name": "PartitionedCall/model_3/tf.concat/concat/axis", "shape": [], "dtype": "int32"}, {"name": "4923", "shape": [1, 1, 48, 32], "dtype": "float32"}, {"name": "4925", "shape": [32], "dtype": "float32"}, {"name": "4927", "shape": [4, 2], "dtype": "int32"}, {"name": "4929", "shape": [3, 3, 32, 64], "dtype": "float32"}, {"name": "4931", "shape": [64], "dtype": "float32"}, {"name": "4933", "shape": [1, 1, 64, 64], "dtype": "float32"}, {"name": "4935", "shape": [64], "dtype": "float32"}, {"name": "4937", "shape": [4], "dtype": "int32"}, {"name": "4939", "shape": [4], "dtype": "int32"}, {"name": "PartitionedCall/model_3/tf.strided_slice_3/ones_like", "shape": [4], "dtype": "int32"}, {"name": "4941", "shape": [3, 3, 32, 32], "dtype": "float32"}, {"name": "4943", "shape": [32], "dtype": "float32"}, {"name": "4945", "shape": [3, 3, 32, 32], "dtype": "float32"}, {"name": "4947", "shape": [32], "dtype": "float32"}, {"name": "4949", "shape": [3, 3, 32, 32], "dtype": "float32"}, {"name": "4951", "shape": [32], "dtype": "float32"}, {"name": "4953", "shape": [3, 3, 32, 32], "dtype": "float32"}, {"name": "4955", "shape": [32], "dtype": "float32"}, {"name": "PartitionedCall/model_3/tf.concat_1/concat/axis", "shape": [], "dtype": "int32"}, {"name": "4961", "shape": [1, 1, 128, 64], "dtype": "float32"}, {"name": "4963", "shape": [64], "dtype": "float32"}, {"name": "4965", "shape": [4, 2], "dtype": "int32"}, {"name": "4967", "shape": [3, 3, 64, 128], "dtype": "float32"}, {"name": "4969", "shape": [128], "dtype": "float32"}, {"name": "4971", "shape": [1, 1, 128, 128], "dtype": "float32"}, {"name": "4973", "shape": [128], "dtype": "float32"}, {"name": "4975", "shape": [4], "dtype": "int32"}, {"name": "4977", "shape": [4], "dtype": "int32"}, {"name": "PartitionedCall/model_3/tf.strided_slice_5/ones_like", "shape": [4], "dtype": "int32"}, {"name": "4979", "shape": [3, 3, 64, 64], "dtype": "float32"}, {"name": "4981", "shape": [64], "dtype": "float32"}, {"name": "4983", "shape": [3, 3, 64, 64], "dtype": "float32"}, {"name": "4985", "shape": [64], "dtype": "float32"}, {"name": "4987", "shape": [3, 3, 64, 64], "dtype": "float32"}, {"name": "4989", "shape": [64], "dtype": "float32"}, {"name": "4991", "shape": [3, 3, 64, 64], "dtype": "float32"}, {"name": "4993", "shape": [64], "dtype": "float32"}, {"name": "PartitionedCall/model_3/tf.concat_2/concat/axis", "shape": [], "dtype": "int32"}, {"name": "4999", "shape": [1, 1, 256, 128], "dtype": "float32"}, {"name": "5001", "shape": [128], "dtype": "float32"}, {"name": "5003", "shape": [4, 2], "dtype": "int32"}, {"name": "5005", "shape": [3, 3, 128, 256], "dtype": "float32"}, {"name": "5007", "shape": [256], "dtype": "float32"}, {"name": "5009", "shape": [1, 1, 256, 256], "dtype": "float32"}, {"name": "5011", "shape": [256], "dtype": "float32"}, {"name": "5013", "shape": [4], "dtype": "int32"}, {"name": "5015", "shape": [4], "dtype": "int32"}, {"name": "PartitionedCall/model_3/tf.strided_slice_7/ones_like", "shape": [4], "dtype": "int32"}, {"name": "5017", "shape": [3, 3, 128, 128], "dtype": "float32"}, {"name": "5019", "shape": [128], "dtype": "float32"}, {"name": "5021", "shape": [3, 3, 128, 128], "dtype": "float32"}, {"name": "5023", "shape": [128], "dtype": "float32"}, {"name": "PartitionedCall/model_3/tf.concat_3/concat/axis", "shape": [], "dtype": "int32"}, {"name": "5029", "shape": [1, 1, 384, 256], "dtype": "float32"}, {"name": "5031", "shape": [256], "dtype": "float32"}, {"name": "5033", "shape": [1, 1, 256, 128], "dtype": "float32"}, {"name": "5035", "shape": [128], "dtype": "float32"}, {"name": "PartitionedCall/model_3/tf.concat_4/concat/axis", "shape": [], "dtype": "int32"}, {"name": "5037", "shape": [1, 1, 512, 256], "dtype": "float32"}, {"name": "5039", "shape": [256], "dtype": "float32"}, {"name": "PartitionedCall/model_3/tf.concat_589/concat/axis", "shape": [], "dtype": "int32"}, {"name": "5125", "shape": [1, 1, 384, 256], "dtype": "float32"}, {"name": "5127", "shape": [256], "dtype": "float32"}, {"name": "5129", "shape": [4], "dtype": "int32"}, {"name": "5131", "shape": [4], "dtype": "int32"}, {"name": "PartitionedCall/model_3/tf.strided_slice_15/ones_like", "shape": [4], "dtype": "int32"}, {"name": "5133", "shape": [3, 3, 128, 128], "dtype": "float32"}, {"name": "5135", "shape": [128], "dtype": "float32"}, {"name": "5137", "shape": [3, 3, 128, 128], "dtype": "float32"}, {"name": "5139", "shape": [128], "dtype": "float32"}, {"name": "PartitionedCall/model_3/tf.concat_591/concat/axis", "shape": [], "dtype": "int32"}, {"name": "5145", "shape": [1, 1, 384, 256], "dtype": "float32"}, {"name": "5147", "shape": [256], "dtype": "float32"}, {"name": "5155", "shape": [3, 3, 256, 80], "dtype": "float32"}, {"name": "5165", "shape": [80], "dtype": "float32"}, {"name": "5179", "shape": [3, 3, 80, 80], "dtype": "float32"}, {"name": "5189", "shape": [80], "dtype": "float32"}, {"name": "5201", "shape": [1, 1, 80, 80], "dtype": "float32"}, {"name": "5215", "shape": [80], "dtype": "float32"}, {"name": "PartitionedCall/model_3/tf.concat_592/concat/axis", "shape": [], "dtype": "int32"}, {"name": "PartitionedCall/model_3/tf.compat.v1.transpose_1158/transpose/perm", "shape": [4], "dtype": "int32"}, {"name": "PartitionedCall/model_3/tf.reshape_2/Reshape/shape", "shape": [3], "dtype": "int32"}, {"name": "PartitionedCall/model_3/tf.concat_593/concat/axis", "shape": [], "dtype": "int32"}, {"name": "5241", "shape": [3], "dtype": "int32"}, {"name": "5243", "shape": [3], "dtype": "int32"}, {"name": "PartitionedCall/model_3/tf.strided_slice_17/StridedSlice/strides", "shape": [3], "dtype": "int32"}, {"name": "PartitionedCall/model_3/output0/concat/axis", "shape": [], "dtype": "int32"}]}]}